dict.pth (torch, 547484 bytes, 8 tensors)

conv1.weight f4 [10, 1, 5, 5]
000000 e4 6a c8 bd 58 4a d1 bd 0a 9c 28 be 19 73 0c be
       -0.09786013 -0.10219258 -0.16465774 -0.13715781
000010 46 a8 19 3d cb f8 65 3d 51 d3 84 be a7 28 d6 bd
       0.037513994 0.05614547 -0.25942472 -0.104569726
000020 23 15 04 3e da 6d 08 3e 7c 0f 8f bd 33 5d fe bb
       0.12898688 0.13323155 -0.06985375 -0.007762575
000030 28 b4 70 be 64 7f 94 bd d0 db c2 3d 00 36 93 3d
       -0.23506224 -0.0725086 0.09514582 0.07188034
000040 d1 ba 04 be 8e 54 5b bd ba d3 8b 3e d2 0d ed 3d
       -0.1296189 -0.053547435 0.27309972 0.11574902
000050 31 c0 85 be 1f a9 1e 3d d1 66 29 3e 36 67 9b 3e
       -0.26123193 0.038735505 0.16543128 0.3035218
000060 38 bf 8a 3e e1 ea 3e 3d 5f cf 79 3e 37 da 82 3e
       0.27099013 0.046610717 0.24395512 0.2555711
000070 0e 3d 5c 3e d9 bf 88 3e ee 60 b1 3e d0 1f ab 3d
       0.21507666 0.26708868 0.34644264 0.08355677
000080 13 0d 06 bd 23 a2 bf 3d e3 2f c3 bd ac 40 9e bd
       -0.032727312 0.09357097 -0.09530618 -0.07727179
000090 bf 01 44 be 10 dc 6b bc 39 96 85 be ac 98 64 be
       -0.19141291 -0.014395729 -0.26091173 -0.22323865
0000a0 73 0e 91 bb ed 43 11 be 54 a2 39 be a2 97 2c be
       -0.0044267713 -0.14186068 -0.1812833 -0.16854718
0000b0 61 f8 f8 bd 29 53 88 be ae ff 91 be b2 f9 9a be
       -0.121567495 -0.26625946 -0.2851538 -0.30268627
0000c0 d0 05 80 bd cc e8 89 be a5 52 9d be e9 85 b0 be
       -0.06251109 -0.26935422 -0.30727115 -0.34477165
0000d0 15 9b 85 be ed 9e b5 bc 66 ee 15 3e fd 11 14 be
       -0.2609488 -0.022170508 0.14641723 -0.14459987
0000e0 2d 0e c7 be de 75 ad bd ab c6 e3 bb f4 29 64 3e
       -0.38878003 -0.08469747 -0.0069511733 0.22281629
0000f0 c7 d9 96 bc 73 bf 3b be 62 b5 23 3d 44 7f 7a 3e
       -0.018414391 -0.18334751 0.039967902 0.2446261
000100 d1 68 44 3e 77 08 14 3e 5b 01 11 3e d6 01 a0 3e
       0.1918061 0.14456354 0.14160673 0.312514
000110 19 8c af 3e da b9 77 3e 56 a5 23 3e 55 07 68 3e
       0.34286574 0.2419199 0.1598104 0.22659047
000120 55 28 86 3e f6 cb 61 be 0c 24 99 be 36 2d af bd
       0.26202646 -0.22050461 -0.29910314 -0.08553545
000130 6a 6c ab 3c 85 ad a0 bc 3d b4 8a 3e f9 5f 33 3e
       0.02092572 -0.01961399 0.27090636 0.1751708
000140 e0 2e b5 bd 71 95 03 be 16 a7 cb 3c a1 36 c8 3c
       -0.08846831 -0.12849976 0.024859946 0.024440112
000150 94 81 95 3e 09 8b 92 be ff 6c 07 bc 2b 5a 42 be
       0.29200423 -0.286217 -0.008265733 -0.18979709
000160 d3 e5 9e 3e 78 0d 7c 3e 36 39 76 be 6f 02 40 be
       0.31034717 0.24614513 -0.24045262 -0.18750928
000170 0d fd 60 bd 60 bd 71 3e 2e f1 dc 3e 06 2d d8 bd
       -0.054928828 0.23607397 0.43152755 -0.105554625
000180 2d 75 45 be c3 95 97 3d 46 0b 3e 3e 8e 64 d6 3e
       -0.1928298 0.07401612 0.18558988 0.41873592
000190 93 48 78 be 1b 33 f4 bd 07 e7 8f bd ab 60 7d be
       -0.24246435 -0.1192381 -0.07026487 -0.24743907
0001a0 6f 09 0f be 44 d8 8b be fc e7 19 be dd 74 36 be
       -0.13968442 -0.27313435 -0.15029901 -0.17818017
0001b0 2c fa b0 3d c6 a6 4e 3e d8 d8 a2 bd 51 5a 9c 39
       0.086414665 0.20180807 -0.07951516 0.0002982193
0001c0 01 75 f9 bd d2 f9 4d 3e 1f 58 08 3a b2 d0 ce 3d
       -0.1218052 0.2011483 0.00052011193 0.10098399
0001d0 05 86 f6 bd 6a 08 5c 3e cc 1b a7 3e 19 df 0d 3d
       -0.12037281 0.21487585 0.32638395 0.03463659
0001e0 fd d0 b9 bd ec de 9f 3d 43 32 df 3d f6 fd 06 3e
       -0.090730645 0.07806191 0.108982585 0.13182816
0001f0 b8 74 af 3e fc ea 55 bd c8 6e 44 3c e5 9c 97 3d
       0.34268737 -0.05222605 0.011989303 0.07402972
000200 3e 8b c7 3d 86 5b fb bd f3 38 bd bd c6 05 ab 3e
       0.09743355 -0.12273316 -0.09239378 0.33402842
000210 7b ee 1c 3e 08 cf 5c be a9 8f 2d be be b3 23 3e
       0.15325348 -0.21563351 -0.16949333 0.15986535
000220 18 ff 78 3e 20 5c b6 3d d4 5d b9 be f3 3f 4f be
       0.2431606 0.0890429 -0.36204398 -0.20239238
000230 be 25 b9 3e 51 a3 8c 3e a0 e9 1b 3d d0 14 75 be
       0.36161608 0.2746835 0.0380646 -0.2393372
000240 8d 54 b4 be 56 18 6c 3e 84 67 79 3e b1 e3 2e be
       -0.35220757 0.23056158 0.24355894 -0.17079045
000250 aa 72 7f be 9f 24 7c 3d c1 f8 9d bd b4 0c 12 be
       -0.24946085 0.061558362 -0.07713462 -0.14262658
000260 c2 d1 95 3d 37 42 0b be 53 09 ee bc 98 f3 ca bc
       0.07315399 -0.13599478 -0.02905718 -0.024774358
000270 38 81 84 bc 31 6a 1a be 68 61 44 be 32 7c e6 bd
       -0.016174898 -0.15079571 -0.19177783 -0.11254157
000280 98 41 d9 bd da 89 00 be 1e da 5f be 71 f2 f8 3c
       -0.10608214 -0.12552586 -0.21860549 0.030389043
000290 4f e2 8d be d2 0d 9e 3d 4c 82 36 be 29 21 36 be
       -0.27711722 0.0771748 -0.17823142 -0.17786087
0002a0 35 02 84 be bf 29 3c be f8 d5 5b 3d 21 34 f2 bd
       -0.25782934 -0.183753 0.053670853 -0.11826349
0002b0 d1 39 9c 3d 5d 02 e3 bd ab 26 1c 3e ee 83 b8 bd
       0.07628215 -0.11084435 0.15249126 -0.090095386
0002c0 ef 8e 5b be a7 a5 c0 be d3 fe c0 be ca 3f 6e be
       -0.21441244 -0.37626383 -0.37694415 -0.23266521
0002d0 f5 fe 81 be 6e ab d3 be 24 39 11 be 24 b6 e4 bd
       -0.2538983 -0.41341728 -0.14181954 -0.11167553
0002e0 ea 9c 83 be 1c 67 93 3e 6b 1b 76 3e fd f3 5d 3e
       -0.25705653 0.28789604 0.24033897 0.21675105
0002f0 de 35 a0 bd 51 e3 ac 3d 77 01 bc 3e 6d 8e 7c 3d
       -0.07822774 0.08441795 0.36719868 0.061659265
000300 f4 a1 c8 3e 5a 7f cc 3e e2 62 b0 3e 47 f3 48 3e
       0.3918606 0.39940912 0.34450442 0.19624053
000310 ce 02 1c 3e 5a b9 2a bd b8 c6 34 3c da af 31 3d
       0.15235445 -0.04168067 0.011033706 0.043380596
000320 d0 50 55 3d b1 31 eb bd 7e 7f 12 3e 58 54 5a be
       0.052079022 -0.11484087 0.14306447 -0.21321237
000330 37 84 00 be a5 68 8d bc bf 2e bb 3b ec 03 40 be
       -0.12550436 -0.017261812 0.0057123597 -0.18751496
000340 8c fc be bd e0 a9 74 be 9a 44 12 be e6 dc 14 bb
       -0.09325513 -0.23892927 -0.14283982 -0.0022714674
000350 78 a9 fb bd 75 3b f5 3b f2 71 8e be dd 56 3a 3d
       -0.12288183 0.0074838945 -0.27821308 0.045492996
000360 b5 ce c9 bc 64 09 6d be 81 ae 9c bd 2e 40 55 be
       -0.024634698 -0.23148113 -0.076504715 -0.20825264
000370 1a d7 11 bd 75 4d df 3c e0 6f cd bd c7 2b c9 bd
       -0.035605527 0.027258614 -0.10031104 -0.09822803
000380 ce 64 0f be 13 24 88 3e 67 27 af 3e 28 c2 b5 3d
       -0.14003298 0.26590022 0.3420975 0.08874923
000390 59 3a 25 3e 69 c5 85 3e 78 64 85 3e 39 2a 0c 3e
       0.16135539 0.26127174 0.26053214 0.13687982
0003a0 80 22 8a 3e 82 41 cd 3e 72 12 1f 3e 87 ba c8 3c
       0.26979446 0.4008904 0.1553438 0.024503006
0003b0 1b f5 4f be 37 6c 25 3d 07 f8 0c 3e 54 f0 0c 3e
       -0.20308344 0.040386405 0.1376649 0.13763553
0003c0 07 9c b8 be 5c c0 1c bd f3 dd 80 be 5c 3d 84 be
       -0.3605654 -0.038269386 -0.25169334 -0.25828063
0003d0 32 24 cc bd c6 af a3 be 4d e5 59 be 2e b1 8c be
       -0.09967841 -0.31970042 -0.21278878 -0.27478927
0003e0 ba 61 bf be b4 48 11 be
       -0.37379247 -0.1418789

conv1.bias f4 [10]
000000 82 eb 6e bd 20 13 fe bd 9a 0c c9 3e 05 84 2f bd
       -0.058330067 -0.124059916 0.39267427 -0.042850513
000010 17 d5 44 bb 25 78 29 3d 1d d7 54 bd c2 ce 57 3e
       -0.0030034238 0.041374344 -0.05196296 0.21074966
000020 f2 fa 7f be c2 cd 13 3e
       -0.24998072 0.14433959

conv2.weight f4 [20, 10, 5, 5]
000000 a6 8f 34 3d 74 cc 7b bc 5b ce 5e 3d 84 ac a6 bc
       0.044082306 -0.01536857 0.054396015 -0.020345934
000010 0e 26 6b bd b4 28 02 3d f8 99 8d bd d8 c2 b2 3a
       -0.05740934 0.0317771 -0.06914133 0.001363839
000020 99 e1 5d bd a8 7a 79 3d be 7c fc bc 80 d1 18 bd
       -0.054170225 0.06090799 -0.0308212 -0.03730917
000030 8d 21 3b 3d ce cf 13 3d e9 b2 e1 3c 3d 96 f8 3a
       0.045686293 0.03608685 0.027551131 0.0018965673
000040 8e 44 a5 3c 2b b5 cd b9 51 16 8a 3c 0c bc 2b bd
       0.020174291 -0.00039235628 0.016856344 -0.041927382
000050 8f 3c 3d 3d b3 1c b1 bc b2 ed 20 3d 06 10 e5 bc
       0.04620033 -0.02162013 0.039289184 -0.027961742
000060 ef 77 af bc 6a 37 04 3d 77 9b 4c 3b 5c de 62 ba
       -0.021419493 0.03227941 0.0031220594 -0.000865435
000070 8c 09 76 3d 18 42 a1 bc 40 23 9b bd 29 55 41 bd
       0.0600677 -0.019684836 -0.07575083 -0.047200356
000080 79 c4 20 3d 91 ee 0d bc 32 20 50 bd c2 95 88 bd
       0.03924987 -0.008662836 -0.050811954 -0.06669189
000090 a8 83 5c 3c 42 7f 32 bd ef 85 1c bc 18 10 a6 bd
       0.013459124 -0.043578394 -0.009553417 -0.081085384
0000a0 87 a7 18 bd 0e d0 c8 bd a8 af ce bd 11 f2 0e bd
       -0.03726914 -0.09805308 -0.100920975 -0.03489882
0000b0 29 e8 1b 3c cb 0a 50 bd a1 1f 42 bd 1d 72 7e 3d
       0.0095158005 -0.050791543 -0.047393445 0.062120546
0000c0 44 27 6f 3d 20 f7 ad 3d 83 29 aa bc da 5b 5c 3b
       0.058387056 0.08494401 -0.020771747 0.0033624084
0000d0 93 a4 89 3d ba 33 36 3c 81 1f 6d bd c7 c5 d4 3b
       0.06720843 0.011120731 -0.057891373 0.0064933035
0000e0 4c b3 40 3d ee b9 11 bd a2 d6 92 bd c5 a4 bb bc
       0.04704599 -0.035577707 -0.07169844 -0.022905717
0000f0 77 1b 7c ba f5 22 93 bd d8 a1 b9 b9 73 cf 37 bc
       -0.00096171297 -0.07184402 -0.00035406533 -0.011218893
000100 f2 aa 04 bc 6b a6 56 bd b7 48 63 3d 6a c4 8f 3d
       -0.008097397 -0.052404802 0.05548927 0.07019885
000110 80 ff fd 3d 88 12 e2 3d 49 ca ce 3d f2 26 cd 3d
       0.124022484 0.11038691 0.100971766 0.10017194
000120 80 cf 44 3d 91 27 a6 bc e6 a7 ee 3c 8e 13 87 bc
       0.04804945 -0.020282539 0.029132795 -0.016488817
000130 9d 9f 37 3c 28 f7 73 bd fb f6 3e bd 4d cb 0d 3d
       0.011207488 -0.05956188 -0.046622258 0.03461771
000140 d4 64 3c 3d bd 35 a4 bc dd a2 e0 bc 3b 96 ba ba
       0.045994595 -0.020045156 -0.02742141 -0.0014235446
000150 6d 3c db 3b 36 3a 64 bb 83 10 98 bd 61 02 ac 3c
       0.006690553 -0.0034824735 -0.07425024 0.020997228
000160 3d b6 a2 bc a5 67 cd bc cc e0 45 bc 66 73 2c bb
       -0.019862289 -0.025073836 -0.0120775215 -0.00263139
000170 bb 0b 04 bd ee 9c ee bc e7 8c 93 bd 3a 99 51 3c
       -0.03223775 -0.029127564 -0.07204609 0.01279288
000180 d5 51 a3 3c 3f 31 9e bd 23 15 9f bb ca 6f 2d bd
       0.019936481 -0.07724237 -0.0048548146 -0.04234294
000190 a4 78 44 bd 5d 97 ae 3b 4f 32 cb bb 11 36 47 3b
       -0.047966614 0.0053281025 -0.0062010656 0.0030397216
0001a0 78 af 9b bd 7a f6 d9 3c 18 b8 43 bd 8b d1 45 3c
       -0.076018274 0.026606787 -0.047782987 0.012073885
0001b0 f8 e3 66 bc 9b 80 57 bd f4 1f 22 bc dd 66 f3 bc
       -0.014092438 -0.052612882 -0.0098953135 -0.029712135
0001c0 29 d1 2c bd 1f 0d 5c 3d 24 d2 4c 3d b4 46 1e 3d
       -0.04219166 0.05372345 0.050005093 0.038641647
0001d0 08 b8 12 bc e2 e9 e0 bc 04 f7 50 3c b4 6b 2a bc
       -0.008955009 -0.027455274 0.012754206 -0.010401655
0001e0 f6 b2 01 3c 08 ea f8 bc 7d 9d 2e bd eb d1 21 bd
       0.007916203 -0.030385032 -0.04263066 -0.039506834
0001f0 e3 19 a5 bd 3a 5b 6a 3d 2b 8a 2d 3d f5 58 37 3d
       -0.08061578 0.057215907 0.042368095 0.04476257
000200 0f d9 79 bb 89 04 17 bd 23 90 8b bc fc 7e 41 3d
       -0.0038123762 -0.03686956 -0.017036503 0.047240242
000210 62 0b 57 bc ed bc 17 3c 5e af 93 bb a4 78 62 3c
       -0.0131252725 0.009261352 -0.0045069894 0.013822708
000220 75 3f 28 3d f4 0c 5f bd 8c 14 2b bc dc d0 1e bd
       0.041076142 -0.054455712 -0.0104419105 -0.038773403
000230 b5 ea 28 bc f6 fe 1d bc 70 05 4b bc 93 78 a9 3d
       -0.010309865 -0.009643307 -0.012391433 0.08274951
000240 71 92 c5 3d b1 af 4b bc 30 16 2c b9 50 17 cc 3d
       0.09647072 -0.012432025 -0.00016411464 0.09965384
000250 b8 62 c7 bb 06 f8 7a 3d ab 9c a3 3d 18 64 a2 3c
       -0.0060847662 0.06127169 0.079888664 0.019823119
000260 0e 9d 71 3d 63 41 dd bc 46 95 96 bc 98 b6 a0 3b
       0.05898767 -0.027008718 -0.018381726 0.0049045794
000270 13 ed 28 39 3e 6e 62 3d 97 8d fc 3c 65 b6 42 3d
       0.00016110046 0.055280916 0.030829234 0.047537226
000280 10 63 5c bd 3f 3c 3c bd c4 54 00 3c ee ef cf 3c
       -0.05380541 -0.045955893 0.00783271 0.025382962
000290 50 68 1f bd 28 5b a8 ba 03 6b b6 3b a2 4c 2b bd
       -0.03891784 -0.001284455 0.005566956 -0.04182113
0002a0 e9 0c f4 bc e9 0d 79 bc ff 60 60 bd 7a 23 55 bd
       -0.029791312 -0.01520107 -0.054780003 -0.052035786
0002b0 0d b4 81 bd 20 3d f6 ba e2 5f 7b bc 92 35 b8 3c
       -0.0633317 -0.0018786527 -0.015342684 0.022486482
0002c0 c2 b3 32 3d fb 3d a0 bc 8f 81 1d 3c 7e ec 1d bd
       0.04362846 -0.019560805 0.009613409 -0.038555615
0002d0 7e ef 94 3d 6d 98 a7 3d e2 e0 26 3d 5d 7a 91 3c
       0.07272242 0.0818337 0.04074181 0.017758543
0002e0 75 41 c2 3c 34 1c 2c 3c 1b a5 89 3b f7 6c a5 3b
       0.023712853 0.010504771 0.0042005903 0.00504839
0002f0 bd 5d 89 3d df 77 89 3d d3 31 28 bc 14 02 7f 3d
       0.06707332 0.06712317 -0.010265785 0.06225784
000300 60 f4 1b 3e 8c fc b2 3d 49 4d c8 3d df 09 8d 3c
       0.1522994 0.08739576 0.09780366 0.017216621
000310 60 4e be 3d fb 1e f9 3c dc f2 ff 3c 06 8b 94 3c
       0.092922926 0.03041028 0.031243734 0.018132698
000320 d3 37 28 3c e3 54 b4 3c 56 8c 8d bc 0d 25 9a bb
       0.010267216 0.022013133 -0.017278831 -0.004704124
000330 7a 6a df bb 65 30 e0 3c d1 a0 c7 3b 93 cc c5 3c
       -0.006818113 0.027366826 0.006092169 0.0241454
000340 25 99 c8 bc 1a cf a3 bb c9 2c 87 bd 70 35 1f 3b
       -0.024487088 -0.0049990537 -0.06600339 0.0024293326
000350 f9 a2 10 3d 3c 3e 22 bd 2e ef 27 3d 68 ec 1e bc
       0.035311673 -0.039610133 0.040999584 -0.009699918
000360 1d df fa bc 45 33 75 bd ee 56 8f bd 49 1d 46 bc
       -0.030623967 -0.059863348 -0.069990024 -0.012091943
000370 3b 41 a5 bd 58 c4 aa bd d5 a0 2b bd 24 3a 0b 3c
       -0.08069082 -0.08338231 -0.04190143 0.0084977485
000380 85 9c d6 3b 43 0c ef 3c ab 5e ec bc 56 de 12 bd
       0.0065494203 0.029180652 -0.028853735 -0.035856567
000390 a4 a7 3a 3d fe 4a c8 3c 01 cc 5c bd 73 ce 16 bd
       0.04557003 0.024449822 -0.05390549 -0.03681798
0003a0 bd 02 12 3d f4 cf 28 3d eb cb 69 bb 35 75 bb 3c
       0.035647143 0.041213945 -0.0035674523 0.022883037
0003b0 80 05 87 ba 59 45 83 bd 0d d4 63 bd 82 26 73 bc
       -0.0010301322 -0.064097114 -0.05562215 -0.014840724
0003c0 1a fb 80 bd 38 e5 e2 bc b4 23 d7 bb eb 49 4e bd
       -0.06297894 -0.02769719 -0.0065655354 -0.050363462
0003d0 11 b2 12 3d 2b 35 dc 3c d6 7d fe 3c 07 30 63 3d
       0.03581435 0.026880821 0.031065863 0.055465724
0003e0 04 de 60 3d 8c cb d3 3d 84 1b 99 bd 07 80 07 bd
       0.05489923 0.10341558 -0.07475951 -0.03308108
0003f0 f3 59 5e 3b eb 0f 1c bc 37 6f a1 bc 85 fe bb 3c
       0.0033928126 -0.0095252795 -0.019706352 0.022948513

conv2.bias f4 [20]
000000 0d c3 26 3d 7a 47 b9 bc ef ae 7a 3b c1 74 87 3c
       0.04071336 -0.02261709 0.0038251241 0.016535165
000010 09 98 84 bd 7f 9e d4 bb 1f a9 dc bc 41 9d 54 3c
       -0.06474311 -0.006488621 -0.026936112 0.012976945
000020 18 39 ac 3c 92 cf 17 bd 01 13 48 3d 57 b9 3f 3d
       0.021023318 -0.03706319 0.04884625 0.046807613
000030 94 74 a3 bc e7 0a 95 3c 48 03 0c bd 1f 51 1d 3d
       -0.01995305 0.018193675 -0.034182817 0.03840744
000040 95 15 b1 bb 6f 66 53 39 9a 7a 3f bd 53 e5 83 bc
       -0.005404184 0.00020160688 -0.04674778 -0.016100561

linear1.weight f4 [256, 500]
000000 64 75 c1 bb 7f 7c 0b 3d 85 07 53 bc df 07 ad bc
       -0.0059038866 0.034054276 -0.012880211 -0.021121917
000010 0c e4 1d 3c 23 99 0f 3d 8e 0c 81 3c 5e be ff 3c
       0.00963689 0.035058152 0.015753057 0.031218704
000020 78 24 8e bc bb c3 85 bc 1f 4a 1b bd 30 b9 9e bc
       -0.017351374 -0.016328683 -0.037912484 -0.019375414
000030 12 3f 6c bc 48 a0 1d 3d 2d a6 42 3b a4 de bf bc
       -0.014419334 0.038482934 0.00297011 -0.023421593
000040 f1 44 0b 3d c1 48 1d bd 21 77 3a 3b 31 ec a1 bc
       0.034001295 -0.03839946 0.0028452354 -0.019765945
000050 7b 56 ad bc e2 c1 94 3c c6 7c 0f 3c 80 12 93 bc
       -0.021159401 0.018158857 0.008757776 -0.017953157
000060 d2 6c 18 3c 21 6f 05 3d 6f 43 3b bd 0f 11 54 bd
       0.0093032885 0.032576684 -0.045718607 -0.05177408
000070 6b 10 2e bc f1 af 20 bc 86 cf 89 3c c4 6a 39 bd
       -0.010624032 -0.009807573 0.016822588 -0.045267835
000080 d3 9a 33 bd f3 7f 05 3b b2 6b 0f 3d 91 f2 fd 3c
       -0.043848824 0.0020370453 0.035014816 0.030999454
000090 3e 58 8c 3b 25 12 0d bd 24 24 d4 bb 2f 2f 80 bb
       0.00428298 -0.034441132 -0.006474035 -0.0039118747
0000a0 bf fe 2e 3d 29 66 be 3a 2b 97 ee 3b 7c 74 0e 3d
       0.042723414 0.0014526296 0.007281204 0.034779057
0000b0 87 0f 49 3c 7d 3c 95 3c 27 82 09 bd 62 a5 05 bc
       0.012271768 0.01821732 -0.03357139 -0.008157106
0000c0 39 be 69 3b 21 9e 19 bd ad 2f 31 3d 1d bf 60 bc
       0.003566636 -0.03750432 0.043258358 -0.01371744
0000d0 27 f3 27 3d d3 c4 8a bc 5e 72 3e bc 5a 56 8f 3b
       0.041003373 -0.016939556 -0.011623947 0.0043743076
0000e0 63 cc 14 bc 96 39 07 3d e3 f0 06 3d d7 1d 94 3c
       -0.009081933 0.033013903 0.03294457 0.018080635
0000f0 d8 fc 0e bd ef 13 da bc 56 8c 05 3d 7b 4c ed bc
       -0.0349091 -0.026620833 0.032604538 -0.028967133
000100 82 98 54 bd f9 5d 13 ba 13 14 2f 3c 25 8e 99 ba
       -0.051903255 -0.0005621608 0.010685938 -0.0011715336
000110 4c a8 0d 3d 1c 04 ae bb 1f f4 cb 3c 3a bc 0d bc
       0.03458433 -0.0053105485 0.02489668 -0.008650834
000120 df e8 06 3d 71 6a b5 3c 3b 6f fc 3b 59 44 aa bc
       0.032936927 0.022145482 0.0077036894 -0.020784544
000130 8b cd 16 3c 6b d4 8c bc 06 81 34 bd 44 3e 9b bb
       0.009204279 -0.017191133 -0.04406836 -0.0047376473
000140 4c a2 73 3c f6 01 82 3c 07 07 ba bb c9 b2 3f bd
       0.014870238 0.015870076 -0.0056771073 -0.046801362
000150 a9 80 89 bd 05 16 41 3d 8a a5 08 3d 77 25 a2 3c
       -0.06713993 0.04714014 0.033360995 0.019793255
000160 1a e5 97 3c 27 d9 20 bb c8 11 0d 3c d7 d3 e3 3c
       0.018541861 -0.0024543495 0.008610196 0.027810974
000170 c1 9a 8f 3c fd 65 4c 3d 9b 6c b5 bc 4a 91 b6 3c
       0.017529847 0.04990195 -0.022146514 0.022286076
000180 31 fa c6 3c 68 3f 38 bd 23 a5 74 bc d1 14 ac bb
       0.024289222 -0.044982344 -0.01493195 -0.005251505
000190 fc 8f 08 3b b8 94 8a bb cb a5 21 bc b2 db 9f 3c
       0.0020837775 -0.0042291544 -0.009866188 0.019513939
0001a0 2c 04 72 3c 37 8f 3a bd e4 21 b4 3c 25 eb bb 3c
       0.014771502 -0.045546737 0.021988817 0.022939274
0001b0 b5 8a 9e 3b 50 c6 a8 bc 1c aa c8 3c 99 8c fd bc
       0.0048383125 -0.020602375 0.024495177 -0.030950831
0001c0 c5 b3 7a bb 0e 71 0f 3d 88 16 09 bd 96 bf 8b 3c
       -0.0038254124 0.035019927 -0.033468753 0.017059129
0001d0 86 19 82 3d 88 16 d5 bc 8d a1 56 bc b6 c7 ee 3c
       0.063525245 -0.02601172 -0.01310004 0.029147964
0001e0 67 17 b1 3b ec e1 e2 3c 44 d6 b0 3c d4 ac ea 3c
       0.005404401 0.027695619 0.021586545 0.028646864
0001f0 7a 9f b5 3b 73 0b 95 3c dd 93 c8 bc c2 ef 47 bd
       0.0055426927 0.018193936 -0.02448457 -0.048812635
000200 68 e7 42 bc bb 67 47 bd fd 42 03 3c 50 c0 23 bd
       -0.011895992 -0.04868291 0.008011577 -0.039978325
000210 7f 38 d9 3c 2d a3 79 3c c0 ea 80 bc 1e dc a9 3c
       0.026516197 0.015236658 -0.015736938 0.020734843
000220 68 e5 0c bc 13 22 33 3d 91 88 3a 3d 86 f3 da bc
       -0.008599617 0.043733668 0.045540396 -0.02672745
000230 b0 01 a8 3a 19 86 93 3c 2b bd 07 3b 55 b7 05 3d
       0.0012817886 0.018008279 0.0020712118 0.032645542
000240 60 a2 9e 3c e3 d9 d3 3c f8 28 2b bb 49 38 03 bd
       0.019364536 0.025860732 -0.0026116949 -0.0320361
000250 e7 1d 30 3c e2 bb b3 3b 74 a1 7f 3c 31 a0 f4 bc
       0.010749317 0.005485044 0.015602458 -0.029861541
000260 43 04 dd bc b2 1f c1 bc 78 3e 82 bc 6f bd 33 3c
       -0.026979571 -0.023574684 -0.015898928 0.010970457
000270 a4 5f 07 bd d5 01 ed 3b a7 7b 88 3c 2e ff b1 bc
       -0.033050194 0.0072328844 0.016660525 -0.021728124
000280 fc 1f df bc 7a 57 7d bc 67 bb c0 bb b1 73 9a ba
       -0.027236931 -0.015462751 -0.005881715 -0.0011783746
000290 ab 25 0c bd e0 5c a3 3c b6 6c c2 bc 4e af a7 3c
       -0.03421561 0.019941747 -0.023733478 0.020469334
0002a0 ce 22 bb 3c ac 1f 53 3d d4 40 aa 3c a7 03 9a 3c
       0.022843745 0.051543877 0.020782866 0.01880057
0002b0 23 45 eb bc 82 5c 1d bd 99 ae 12 3d b2 03 3f bd
       -0.02871949 -0.0384183 0.03581104 -0.046634383
0002c0 19 16 91 bc 9d 99 d0 bc 47 4d 72 bd 29 0f f2 3c
       -0.017710732 -0.025463874 -0.05915573 0.029548245
0002d0 c1 06 f3 bc 8a f9 45 3d cd 9f 0e bd c5 ba a4 bc
       -0.029666306 0.048333682 -0.034820367 -0.02010859
0002e0 8e a3 d1 bc 44 df ea 3c 7a b3 06 bd 0b c2 d1 3c
       -0.025590684 0.028670914 -0.032886006 0.025605222
0002f0 f5 60 5d 3d a4 15 1a bd b6 d1 72 3c 5d a0 46 bc
       0.054047544 -0.037618294 0.014820507 -0.0121231945
000300 f9 08 9f bb bf f6 df bc 84 5f 05 bd c9 50 4e bc
       -0.0048533645 -0.027339337 -0.032561794 -0.012592503
000310 43 be 63 3c 72 82 90 bc c4 cc 36 3c 46 f9 ae bb
       0.013900342 -0.017640326 0.011157218 -0.0053397743
000320 33 04 cb bc b9 c6 97 3c 54 8c 1a 3c 2c 34 d7 bb
       -0.024782276 0.018527376 0.009432871 -0.0065674987
000330 0d ad 94 3c bf 56 32 bc 3a 28 ca bb ad 5b 14 bd
       0.018148923 -0.01088494 -0.006169346 -0.03622024
000340 a3 ca f2 3c f3 f2 0a 3d 69 f2 69 3c 7b e3 17 bc
       0.02963764 0.0339231 0.0142789865 -0.009270544
000350 a4 5e a0 3b 7f 00 9a bc 16 3e 32 3d e1 0c 13 3d
       0.0048940945 -0.018799065 0.04351624 0.035900954
000360 57 15 08 bd 2a 88 43 bd 1c 5c 04 bd 7a eb 37 3c
       -0.033223476 -0.047737278 -0.032314405 0.011225576
000370 66 27 8a 3c 76 48 98 bc ba ac 14 bd 0a 0f 82 3c
       0.01686449 -0.01858924 -0.036297537 0.015876312
000380 4b 40 12 bd 60 d2 b5 3c aa 42 38 ba 81 f8 f1 3b
       -0.035705846 0.022195041 -0.00070289767 0.0073843603
000390 0e 28 c5 3c a2 e1 c1 3c 0a fc 97 3c 98 36 9b 3c
       0.024066951 0.02366716 0.018552799 0.01894693
0003a0 d7 4c 35 3c 4e d3 7a 3c 95 64 5a 3c 4d e4 e8 bc
       0.011065683 0.015309168 0.013329645 -0.028429175
0003b0 28 77 02 bd ce bd 15 bb 7e 85 66 3c 4a 72 b0 3c
       -0.031851918 -0.0022848728 0.014069913 0.021538872
0003c0 ee 6a 5a 3c 09 fa b9 bc a8 ac 47 3d 63 c6 e9 bc
       0.013331158 -0.022702234 0.048748642 -0.028536981
0003d0 c8 da 2c 3d 8c 47 0e bb 26 73 f5 3c d4 f8 ef 3b
       0.042200834 -0.0021710126 0.029962134 0.007323364
0003e0 29 cf 39 3c a9 35 54 bc 89 0d 20 3d 82 70 17 3d
       0.011340895 -0.012952247 0.039075408 0.03697253
0003f0 8a aa e9 3a 48 f4 d0 bc 42 40 1d bd ca ba 89 3b
       0.0017827314 -0.025507107 -0.03839136 0.004203175

linear1.bias f4 [256]
000000 55 bd 02 bd fb fb 2d bd d6 b6 0d bd 02 3e c4 3c
       -0.031918842 -0.042476635 -0.034598194 0.023955349
000010 93 19 91 bc 0b bf 2c bd 68 c8 fd 3c 58 0d 31 3c
       -0.01771239 -0.04217438 0.03097935 0.010806404
000020 66 6c 20 bd 00 cb b2 bb 91 74 fa 3c 5c 68 16 bd
       -0.039165877 -0.0054563284 0.030573161 -0.03672062
000030 59 46 28 3d 95 94 f7 bc 1e 22 0e bd 61 a7 39 3c
       0.041082714 -0.030222217 -0.034700505 0.01133141
000040 d4 ed 99 bc 24 42 72 bb 47 ff 33 3d 57 4c c1 3b
       -0.018790163 -0.0036965692 0.043944623 0.005898993
000050 9f 67 a6 bb ca ab 98 3c c3 36 de bc 04 60 93 bb
       -0.0050782706 0.018636603 -0.027125722 -0.00449753
000060 ba 93 d6 3c f3 cd a4 3c 99 3c 55 3b 20 21 33 bb
       0.026193488 0.020117735 0.003253734 -0.0027332976
000070 b8 e9 cb bc 9a 12 09 3d 9a 15 27 bd 7d 2d 65 bc
       -0.02489172 0.033465005 -0.040792085 -0.013987896
000080 3a 29 2e 3d f0 e4 02 bd 05 9d 51 bc d3 4f 0a bd
       0.042519785 -0.031956613 -0.012793784 -0.033767533
000090 e2 93 5d bb f0 93 bf 3c e4 e7 19 bc 9d 03 f4 3c
       -0.003381007 0.023385972 -0.009393666 0.02978688
0000a0 e6 88 4a 3c 03 a3 2d 3b e0 67 ae 3c af 78 06 bd
       0.012361741 0.0026494868 0.021289766 -0.032829937
0000b0 33 98 36 bc 8f 51 8a ba 37 00 17 3d aa 2a 97 bb
       -0.011144686 -0.0010552871 0.03686544 -0.0046132402
0000c0 f4 f1 29 3d d9 75 f6 3c d6 76 34 bd 12 be 82 ba
       0.04149051 0.030085491 -0.044058643 -0.0009974858
0000d0 66 18 59 bc 12 79 be bb 1c c9 3c bd dc f8 b5 3b
       -0.013250446 -0.0058127725 -0.04609023 0.005553348
0000e0 41 fc 14 bd 17 0a b6 bc 16 ec cd 3b 75 29 f2 bc
       -0.03637338 -0.022221608 0.006284247 -0.029560784
0000f0 26 6d eb bc 14 ec ff 3c d9 8d b7 bc 41 de 21 bc
       -0.02873857 0.0312405 -0.022406505 -0.00987965
000100 82 b7 0f bd a8 f8 8a 3c 35 ee b8 bc f5 4d 4e bc
       -0.035087116 0.016964272 -0.022574523 -0.012591829
000110 b1 93 15 3c 6c f6 1f 3c d4 be 35 bd 7a 37 94 3c
       0.009129451 0.009763341 -0.04437144 0.01809286
000120 ae 66 9a b9 14 b5 58 3c 52 ed f2 bc 2c 79 34 3d
       -0.0002944967 0.013226766 -0.029654179 0.04406087
000130 aa cb 1e 3c 6e e4 ab bc 6e 20 71 3a 09 11 bb bb
       0.009692112 -0.020982947 0.0009198253 -0.005708818
000140 e5 a4 25 3d 78 ca c1 3a f9 ac 11 bd 74 41 32 bc
       0.04044046 0.0014785072 -0.03556535 -0.010879863
000150 2f 57 6e 3c b0 33 86 3c 13 d3 79 3c 15 b8 31 3d
       0.014547153 0.016382068 0.015248078 0.043388445
000160 9c 46 16 3d 2f 8e 94 3c 25 a1 21 bc a8 41 a9 3c
       0.036688432 0.018134205 -0.00986508 0.02066119
000170 f8 1a b5 bc 45 15 7c 3c 59 f3 0b 3c 37 c0 c2 3c
       -0.022107586 0.01538593 0.008541905 0.023773296
000180 b2 b0 0e bd ca 1c c6 3c 6b f0 7c 3c e8 05 a4 bc
       -0.03483648 0.02418365 0.0154381795 -0.020022348
000190 e1 dc 03 bd cb bb ff 3c 63 c3 e3 bc 80 6c fe 3c
       -0.03219307 0.031217476 -0.027803129 0.031057596
0001a0 40 9f 05 3d 9b ee 0f bd b3 04 d9 3b a2 b3 1a 3c
       0.032622576 -0.03513966 0.0066228746 0.009442242
0001b0 09 6d 38 bc fe bc cf 3c 17 0f 1f 3c a0 b8 96 bc
       -0.011256465 0.025358673 0.009708188 -0.018398583
0001c0 21 cd 67 3c 0c 3e 90 3b 27 92 df bc dc 44 f1 3c
       0.014148028 0.004401928 -0.02729137 0.02945178
0001d0 9e b4 16 bd e3 57 80 3c e6 29 12 3d d3 c3 21 bd
       -0.036793344 0.015666908 0.03568449 -0.039493393
0001e0 56 d0 ee 3c 4b 79 9f 3b e2 cd ca bc bd aa cd 3b
       0.029152077 0.004866754 -0.024756376 0.006276457
0001f0 4f 04 f5 bc 41 3c 37 ba 33 1a 1d bd d2 54 32 bd
       -0.029909281 -0.00069898745 -0.038355064 -0.043537922
000200 57 65 17 bd f4 d9 cb 38 88 fc 5d 3c a5 da e7 bb
       -0.03696188 9.720391e-05 0.013548978 -0.007075625
000210 d0 e8 1e 3d a1 90 a4 bc 75 24 00 bd 66 04 fa bc
       0.038796246 -0.020088496 -0.031284768 -0.030519675
000220 0d da 33 3d ec f1 30 3d 7d cf 4d 3c 68 33 f1 bc
       0.04390912 0.043199465 0.012561676 -0.029443458
000230 a0 ef 8e 3c eb 6b 26 3d 25 5f c0 bc e5 49 c7 3c
       0.017448246 0.040630262 -0.023482868 0.024327228
000240 93 31 ba 3c 4a 89 9e bb 8c fe ee 3c aa 95 14 3d
       0.022728717 -0.0048381435 0.029174112 0.036275543
000250 18 56 25 bd e9 a2 d9 bc 17 73 17 bd 04 e7 0c bc
       -0.04036531 -0.02656694 -0.036974993 -0.0086
000260 d9 fe 09 bd 78 d7 3f bd e2 00 3c 3d 8c 56 6c bc
       -0.033690307 -0.046836346 0.04589928 -0.014424931
000270 16 1f 25 3c d0 08 67 3b db f3 12 3d c7 47 2d 3c
       0.010078212 0.0035253055 0.03587709 0.010576195
000280 a6 b1 92 3a 32 01 0f 3c bb e3 24 3b bf 08 2a 3d
       0.0011191859 0.008728312 0.0025160152 0.041512247
000290 1b c8 37 3d c9 50 0b 3d 18 37 da bc 80 08 ec 3c
       0.04486857 0.03401259 -0.026637599 0.028812647
0002a0 81 8f 14 3d 58 0b 02 bd 17 38 87 bc 3b 95 73 3c
       0.03626967 -0.0317491 -0.016506238 0.014867122
0002b0 d8 82 0d bd 57 40 13 bd 7d 50 d5 3b e0 a7 93 bc
       -0.03454861 -0.03595003 0.006509839 -0.018024385
0002c0 9a 1d 28 3b c7 38 0c bd 38 eb 84 3c bb f6 1f bd
       0.002565241 -0.034233835 0.016225442 -0.03905366
0002d0 f6 4d 23 3d 99 89 84 3c ff 17 0a bd 4a 06 d8 bc
       0.03986927 0.016178893 -0.03371429 -0.026370186
0002e0 3d f5 99 bc 5b 6e e7 bc dd a7 a5 bc 9a 67 1f bc
       -0.018793697 -0.028250864 -0.020221645 -0.00972929
0002f0 de 77 2f 3d 47 66 92 bc 02 29 74 3c 4d d9 05 bd
       0.042838924 -0.017871035 0.014902355 -0.032677937
000300 6b 4d cf bc a1 26 28 bd 6e 2c 26 3d 99 4a b2 3c
       -0.02530547 -0.041052464 0.040569715 0.021764087
000310 17 75 64 3a 03 86 41 3d 33 0b 21 bd e1 36 f2 3b
       0.00087149575 0.047246944 -0.03931732 0.007391796
000320 e8 d6 df 39 91 31 ab bb 45 9e 98 3b 0d 42 bb bc
       0.00042693992 -0.0052244146 0.004657539 -0.022858644
000330 0d 2a a6 bc 1b 47 fa bc f0 0d 01 3c d3 e6 17 bd
       -0.020283723 -0.030551484 0.007876858 -0.037085366
000340 6c 45 5b bc b8 8f 87 3c d1 1b 0a 3c c1 ca d8 b9
       -0.013383251 0.016548023 0.0084294835 -0.00041349794
000350 46 16 f9 3c 40 8c 1a b9 e8 13 25 3c a9 c0 0d 3d
       0.030406129 -0.00014738832 0.010075547 0.034607563
000360 92 fc 1c 3d a8 23 17 3d 9e 56 ac 3b b8 c6 2d 3d
       0.038326807 0.03689924 0.005259349 0.04242584
000370 9f 95 d3 3c 52 1e 9f 3c 8a 18 2d bd b1 3b aa 3b
       0.02582818 0.019423638 -0.04225973 0.005195104
000380 c8 45 5c bc 51 0f 1b bd a5 75 33 3d f1 5e 04 bd
       -0.0134443715 -0.037856404 0.043813366 -0.032317106
000390 e0 35 35 bc 27 98 e6 ba 86 1e b7 bc 24 0c 59 bc
       -0.011060208 -0.0017592952 -0.022353422 -0.013247523
0003a0 f5 21 ed bc 07 2d 1f 3b 3f a9 19 bd f5 b3 07 bd
       -0.028946856 0.0024288313 -0.03751492 -0.033130605
0003b0 30 fe 9e 3c eb fa d5 bc 97 9b 5f bc 02 2b d3 3c
       0.019408315 -0.026120624 -0.013647935 0.025777344
0003c0 1d a3 c8 bc 2e 53 31 bc a1 cd a9 bc f2 f6 d7 3c
       -0.024491841 -0.010823054 -0.020727934 0.02636287
0003d0 68 01 bd bc 92 af 05 3d a4 9b 8e ba 76 1b b7 bc
       -0.02307196 0.03263814 -0.0010880125 -0.022351962
0003e0 d2 f7 1c 3d 67 8d 14 bd 57 21 3c 3d 9d 27 b8 bb
       0.038322277 -0.036267664 0.045930233 -0.0056199566
0003f0 08 5a 12 bd 8b f7 08 3c c7 53 ab bc 22 d9 c0 bc
       -0.03573039 0.0083598 -0.020913972 -0.023541037

linear2.weight f4 [10, 256]
000000 c4 6a ff 3c ab 68 81 bd a1 25 39 bc e7 64 94 bc
       0.03117884 -0.06318792 -0.011300475 -0.01811452
000010 c4 fb a2 3d 6f a1 79 3c 44 ac 0c 3d d6 67 fe bc
       0.07958177 0.015236243 0.034343973 -0.031055372
000020 83 30 09 3c bd c0 78 3c 46 e8 01 bd 19 f8 60 bd
       0.0083733825 0.015182671 -0.031715654 -0.054924104
000030 47 3d 83 3d 42 b2 5d bd 8a 8b f1 bd 45 98 8a bd
       0.06408172 -0.054125078 -0.11794193 -0.06767324
000040 2f 4f 9e 3d b3 e7 a8 3d c9 d2 a2 3d 91 fd 10 3b
       0.07729947 0.08247318 0.0795036 0.0022123794
000050 8f d4 df 3b 39 f3 bc 3d 29 70 a9 3d 08 56 95 bc
       0.006830759 0.092260785 0.08273346 -0.0182295
000060 2e 57 4c bc ca e5 05 be 2c cd db bd ec f1 d4 bd
       -0.012471957 -0.13075939 -0.10732493 -0.103977054
000070 7e 90 5d 3d 58 f7 c8 bd 78 aa 10 bd b1 e0 9e 3d
       0.054092877 -0.09812802 -0.03531882 0.077577
000080 a7 18 10 3b 9f f8 f4 3c 7b 5a 9e bc 94 7b 65 3c
       0.002198735 0.029903708 -0.019330254 0.014006514
000090 80 3d ae 3b 7d 57 74 bd 14 ab ad 3d 07 b4 e6 3d
       0.00531739 -0.059653748 0.08479896 0.11264806
0000a0 43 07 4e 3d 0b 52 4b bd 33 ff 2a bc 8d 3a 65 3c
       0.050299894 -0.04963879 -0.010436821 0.01399101
0000b0 40 d2 9c 3d 27 c9 5c 3d 7c b8 64 3d 24 de a5 bc
       0.076572895 0.05390277 0.05584 -0.020247526
0000c0 bc 6b 45 bd cf e0 5b 3d bf 25 b7 3d 17 b9 e9 3c
       -0.048198447 0.05368119 0.08942746 0.02853064
0000d0 65 6a b6 3d a6 c5 98 bd 72 32 fa 3c a6 f8 0e 3d
       0.08907012 -0.074595734 0.030541632 0.0349051
0000e0 64 dd fd 3b 6f 0b b8 3c 9c a5 53 3c 07 c8 21 3d
       0.007747339 0.02246639 0.012917902 0.0394974
0000f0 dc ef 8d 3d f5 0b 05 3d ec f8 37 3d 21 5e 4f 3d
       0.06930515 0.032482106 0.044915125 0.050626878
000100 0c 85 4f bd 41 e2 8e 3d 1b 96 6f 3d bd 8a 89 bc
       -0.050663993 0.06976748 0.05849276 -0.016789788
000110 36 4b 2e 3d b3 47 6b 3c ee b0 1b 3d 5d eb 60 bd
       0.042552195 0.014360356 0.03801053 -0.05491196
000120 b4 d3 f3 bd 26 5a 37 bc b2 db c1 3d 84 87 01 be
       -0.119056135 -0.011190927 0.09465732 -0.12649351
000130 a4 03 08 bd 14 e2 84 bd 0d 77 93 bc 8c a2 eb bb
       -0.033206597 -0.064884335 -0.018001104 -0.007191008
000140 d9 3d 63 3c 33 9c 26 3c 6e 26 e0 3a 0a 9f 45 bd
       0.013869726 0.010169077 0.0017101297 -0.048247375
000150 f1 ac 0b 3d 23 20 3f bd 60 3c dc 3d 12 5e 02 3d
       0.034100477 -0.046661507 0.10753703 0.031827994
000160 49 47 d4 3c 41 2a 5d bd 28 ca ae bd a0 89 82 3d
       0.025912898 -0.053995375 -0.08534652 0.06373906
000170 37 2f 03 be a6 5e d0 bd 2a cb 63 3d bb a4 b8 bd
       -0.1281098 -0.10174303 0.055613674 -0.09015795
000180 9f 16 49 3d c5 c1 8e bd 55 48 af 3d ce 86 66 bd
       0.04909384 -0.06970552 0.08558718 -0.056280904
000190 bc c7 f4 bd 69 b3 8e bd 5f b9 a6 3c 8d ae 7a bd
       -0.11952159 -0.069678135 0.020352064 -0.06120162
0001a0 bf 97 d7 bd 47 37 60 bc af a4 7e bd de 91 0d bd
       -0.1052699 -0.013685054 -0.062168773 -0.034562938
0001b0 96 f9 a8 3d 61 db ba bd 1c fc 2e 3d 76 a0 2a bd
       0.0825073 -0.091238745 0.0427209 -0.041656934
0001c0 6e 72 fb 3b 3b 1e 3f 3d 4f fd 20 3d ec 81 83 bd
       0.007673553 0.04665969 0.039304074 -0.06421265
0001d0 a2 76 a1 3b 8b d6 0a be ba fc 20 be f3 c5 52 bc
       0.004927472 -0.13558404 -0.15721408 -0.012864578
0001e0 9d af 58 bc b2 17 0e 3d 21 df 38 3d 21 16 ef 3d
       -0.013225463 0.034690566 0.045134667 0.11674143
0001f0 cd 92 01 3d 27 b0 01 3e 0b 5c 23 3d 4f 2a c7 bc
       0.03163414 0.12664853 0.0398827 -0.024312166
000200 17 17 50 3c 1d eb 75 3d d6 4f a9 3c 3f b4 e3 3c
       0.012700818 0.060038675 0.020667952 0.027795909
000210 1f 88 65 3d 7b 8c 14 bd e1 6c 77 3d d5 06 f0 bd
       0.05603802 -0.036266785 0.06040657 -0.11720053
000220 58 6c 84 3c 02 55 91 bd ce 3e a5 3a f8 53 c8 3c
       0.016164944 -0.07096292 0.0012607218 0.024454102
000230 3b 31 97 bc c8 b8 97 3d ac db 94 3d 38 1a 25 bd
       -0.018456092 0.07408291 0.072684616 -0.040308207
000240 62 c1 0c bc bf 6b fc 3c d7 d6 0d bd 14 6e 2a 3d
       -0.008591028 0.030813096 -0.034628715 0.041608885
000250 e7 d6 ad 3d 3a 2c c8 3d 27 7e 61 bd 05 08 79 bd
       0.08488255 0.097740605 -0.05505195 -0.060798664
000260 6a 83 c1 3c 6e 51 f7 bc ce 91 a2 bd 26 fe a7 3d
       0.023622233 -0.030190196 -0.07937966 0.08202772
000270 1a f7 f4 bc c3 08 99 bc 42 d6 e8 bb 7d 83 01 bd
       -0.029902983 -0.018680936 -0.0071056196 -0.031619538
000280 3d 9c 5c bd 5e 52 0a 3c 27 8d ab bd 12 4c f1 3d
       -0.053859938 0.008442489 -0.08376532 0.117820874
000290 cf 9a 32 bd 4b 4c a5 3c 7e 87 f6 3c 88 f6 80 3d
       -0.04360467 0.02017798 0.030093905 0.06297022
0002a0 6a 95 1d bd 92 45 78 3c 58 06 0c 3d a3 95 e4 bc
       -0.03847257 0.015153306 0.034185737 -0.027903384
0002b0 99 bc dc bc 7a 70 c1 3d 40 2d ce bc db 5c 49 bc
       -0.0269454 0.09445281 -0.025168061 -0.012290205
0002c0 61 a9 1f bd a5 13 8a 3d 43 ad 20 3d 8a e8 13 3b
       -0.03897989 0.06742028 0.039227735 0.0022569024
0002d0 4f b1 76 3d 54 6b 4c bd 5a cd 87 bd 69 e4 4a bd
       0.06022769 -0.049907044 -0.066309646 -0.049534235
0002e0 73 cb 78 bd f1 52 42 3d 0d 6c 84 ba 99 dd 6e 3c
       -0.0607409 0.04744238 -0.0010103002 0.0145792
0002f0 f6 a6 2a 3d df 10 67 bd c0 bd a0 3d ee ef 3b bc
       0.041663133 -0.056412574 0.07848692 -0.011470778
000300 fb 0d 4d 3d cf 7b 9c bc be 59 07 bd a2 12 ee 3d
       0.05006216 -0.019102005 -0.03304457 0.11624648
000310 33 91 18 bd 3f db 56 3c 1f 77 c0 bd db bd b0 3c
       -0.037247848 0.013113796 -0.093977205 0.021574905
000320 66 1f b4 bd 17 df 10 3d 81 5c aa 3d 02 5d 51 3b
       -0.08795051 0.035369005 0.08318425 0.0031946306
000330 54 7d 4d bd 8a 77 a0 3c 9c ec 5e bc fd 2d b3 bc
       -0.05016835 0.01958825 -0.013606217 -0.021872515
000340 19 da 7a bc 62 3e 2d 3d 02 82 ad bd c1 17 07 3d
       -0.015310788 0.04229582 -0.08472063 0.032981638
000350 5a 97 ff bb 94 84 05 3d 2c 9f 78 3c 3c 78 a4 bd
       -0.007800025 0.03259714 0.015174668 -0.080307454
000360 0e 5b 9b bd ef 2a 1c bd 1d f8 38 bd f0 ca 8a bc
       -0.07585727 -0.038126882 -0.045158494 -0.016942471
000370 59 7f 86 bc c9 01 08 be 49 61 f6 3b 6d 5e e1 bd
       -0.016418146 -0.13281931 0.0075189215 -0.110043384
000380 8e b3 0b bd f9 66 7e 3d f6 e9 98 bc 37 39 15 3d
       -0.034106784 0.06210992 -0.018666249 0.036431517
000390 49 3a 1f 3d b6 ae ce bd 09 0e 83 3d 3a 17 61 bd
       0.038873944 -0.10091917 0.06399161 -0.05495379
0003a0 fb 3d 53 3d 0b 24 ab bd 10 31 81 bd 8e 66 12 3d
       0.05157278 -0.08356484 -0.06308186 0.035742335
0003b0 1d 35 ed bc 76 cb 8e 3d e2 70 36 bd 33 ad 4e bd
       -0.02895599 0.06972401 -0.044541247 -0.050458144
0003c0 8e 44 49 3c 02 58 1e 3d 56 16 73 3d 04 57 e0 bd
       0.012284411 0.03865815 0.059347473 -0.10954097
0003d0 90 e6 9d 3d 0c 13 72 3c 95 be bc bc 6f 96 38 bd
       0.07709992 0.014775049 -0.023040095 -0.04506534
0003e0 c3 2a dd 3b 2a 83 26 3d cb 1b 9f 3d 9d 97 24 3c
       0.0067494824 0.04065243 0.07768973 0.010045913
0003f0 3e 74 07 3e 2d e4 20 3c f6 4b ca 3d d6 df be bd
       0.13227937 0.009820026 0.0987777 -0.09320037

linear2.bias f4 [10]
000000 f9 bf 97 bd 05 50 85 3d a0 13 98 bb dc 37 2f bd
       -0.07409663 0.06509403 -0.0046410114 -0.04277788
000010 76 5d 93 bc 8e 57 25 3c 75 87 e1 bc 51 68 29 bd
       -0.017988902 0.010091675 -0.027530411 -0.04135925
000020 cf 4f e7 3d 08 c3 fb 3c
       0.11294519 0.030732647
