dict.pth (torch, 547484 bytes, 8 tensors)

conv1.weight f4 [10, 1, 5, 5]
0.31881824 0.32210913 0.19686732 0.22205764 0.27166763 0.29709566 0.4426417 0.46117818
0.3008884 0.19116643 -0.39366624 -0.26596293 0.034396306 0.122289665 0.17782784 -0.40934423
-0.3035978 -0.44464 -0.35062894 0.029971372 -0.10341293 -0.28054488 -0.1922354 -0.22265223
-0.17630756 0.09561573 -0.124407925 -0.04403459 -0.20106712 -0.20701371 0.0063790437 -0.20326501
-0.31962058 -0.119561605 -0.369996 0.3922457 0.08676232 -0.12945452 -0.07836678 -0.4081431
0.42682353 0.20613155 0.2124911 0.101491116 -0.09026595 -0.07737073 0.44432572 0.5122865
0.26388407 0.39458796 0.086062446 -0.07801659 0.321064 0.18206118 -0.16155489 -0.32539836
-0.0838372 0.36516032 0.38107598 -0.31895077 -0.23260391 -0.028935995 0.45047572 0.11828107
-0.20849709 -0.19346106 0.15883897 0.35359055 0.019533928 -0.24223548 0.07072245 0.07486193
0.060342602 0.1680627 -0.042815093 -0.075059325 0.0067162337 -0.07104098 0.15267272 0.054389514
0.089391716 -0.1466701 -0.127319 0.10879792 0.12167234 -0.11716044 -0.00577978 -0.12437726
0.00061085826 0.15743496 -0.07917225 -0.27514654 -0.18883723 -0.13521723 -0.023059785 -0.117925994
-0.0074654343 -0.2633032 -0.13465448 -0.17281525 0.074040376 0.26061296 0.2540936 0.31018
0.17882647 -0.090280585 0.0027642243 0.37989825 0.29133683 0.08656238 0.0075985636 -0.22954409
0.009326801 0.25234622 0.20057525 -0.35193753 -0.14326085 -0.36012268 -0.0662175 0.30926
-0.1751011 -0.37064415 -0.13288689 -0.29742497 -0.07482214 -0.34287882 -0.37986156 -0.15207194
-0.09999015 0.1593588 -0.3414904 -0.23268037 0.08603146 0.1850567 0.15769118 0.25849336
0.28180638 0.44669798 0.2599781 -0.049168438 0.3407241 0.3858821 -0.013282101 -0.109483756
0.11929585 0.09036626 -0.027217137 0.0027817327 -0.31229597 0.11266221 -0.06433756 -0.10594891
-0.03195041 0.06911041 0.19178793 0.005851683 0.20050658 0.18020467 0.14340664 0.39763427
0.35004866 0.3344574 0.2909499 0.06613669 0.05117588 0.10538476 0.009153138 0.033724632
-0.10925278 -0.000433685 -0.39194578 -0.5064713 -0.46894696 -0.32910508 -0.31525135 -0.22279297
-0.14669609 0.13974723 0.33234066 0.26765436 -0.1585052 -0.17670047 -0.07849402 0.17284322
0.3047914 -0.16679707 -0.24278675 0.19202949 0.1453007 0.39948788 -0.12134342 -0.24622129
0.2604855 0.12985435 0.113835864 -0.094420455 -0.15205535 0.2331828 0.30301172 0.29226267
-0.19438636 -0.044337872 -0.11137763 0.030609267 0.15362385 -0.2511902 -0.28922072 0.060265806
-0.038532104 0.17122373 -0.1701048 -0.23016213 0.025189813 0.25883278 0.1649633 -0.09883668
-0.28005135 -0.15549256 0.34106663 0.35126466 -0.23522608 -0.12608488 -0.05792203 0.3920808
0.37831292 0.10108299 0.20241916 0.10878149 0.07291224 -0.0035445513 -0.008480853 0.40431938
0.23063497 -0.10741407 -0.15625896 0.4570374 0.121068485 -0.11413006 -0.23166305 -0.24200633
0.45490387 -0.062657095 -0.23317206 -0.06664742 -0.011579092 0.2392051 0.034230165 -0.1719834
-0.16564439 -0.16261931
00000000: 253c a33e 7deb a43e 9697 493e 1463 633e
00000010: 0518 8b3e ec1c 983e efa1 e23e 8c1f ec3e
00000020: 0b0e 9a3e 22c1 433e 9f8e c9be 4b2c 88be
00000030: 24e3 0c3d 0173 fa3d 8018 363e 9195 d1be
00000040: 2c71 9bbe dba7 e3be a385 b3be 8686 f53c
00000050: 29ca d3bd 94a3 8fbe 5bd9 44be f2fe 63be
00000060: f889 34be 2ed2 c33d 95c9 febd 9d5d 34bd
00000070: 8ae4 4dbe 67fb 53be 4c07 d13b b424 50be
00000080: 4fa5 a3be b7dc f4bd 1e70 bdbe 6ed4 c83e
00000090: 71b0 b13d ba8f 04be c37e a0bd 22f8 d0be
000000a0: 9d88 da3e 2614 533e 4497 593e 93da cf3d
000000b0: 5bdd b8bd 8c74 9ebd a97e e33e 3525 033f
000000c0: d01b 873e 6f07 ca3e 8241 b03d 29c7 9fbd
000000d0: 8062 a43e 3f6e 3a3e a56e 25be 9d9a a6be
000000e0: d7b2 abbd 4bf6 ba3e 641c c33e 844d a3be
000000f0: b82f 6ebe 2e0b edbc c1a4 e63e 583d f23d
00000100: 4380 55be a81a 46be afa6 223e d209 b53e
00000110: 9e05 a03c 940c 78be efd6 903d 3651 993d
00000120: ce29 773d a118 2c3e e15e 2fbd b4b8 99bd
00000130: da13 dc3b ef7d 91bd 3d56 1c3e 8ac7 5e3d
00000140: 0113 b73d b030 16be e95f 02be 72d1 de3d
00000150: 592f f93d d0f1 efbd 4f64 bdbb 81b9 febd
00000160: 0122 203a a136 213e 1025 a2bd 02e0 8cbe
00000170: 8c5e 41be 6376 0abe e0e7 bcbc 2f83 f1bd
00000180: 9aa0 f4bb adcf 86be dde2 09be 7bf6 30be
00000190: 7ba2 973d 106f 853e 8e18 823e eacf 9e3e
000001a0: 491e 373e 07e5 b8bd fd27 353b 0682 c23e
000001b0: 1a2a 953e 9e47 b13d 5ffd f83b 9b0d 6bbe
000001c0: 70cf 183c 8633 813e 9963 4d3e 2831 b4be
000001d0: f9b2 12be 0062 b8be 0a9d 87bd 5457 9e3e
000001e0: b44d 33be 12c5 bdbe 8013 08be 1648 98be
000001f0: 5a3c 99bd d08d afbe 377d c2be bfb8 1bbe
00000200: a3c7 ccbd f42e 233e d4d7 aebe c343 6ebe
00000210: 4331 b03d 817f 3d3e cc79 213e 3e59 843e
00000220: ed48 903e 99b5 e43e d91b 853e d864 49bd
00000230: 6473 ae3e 5792 c53e 2b9d 59bc 0539 e0bd
00000240: 6251 f43d f211 b93d 79f6 debc bb4d 363b
00000250: 42e5 9fbe 72bb e63d 69c3 83bd befb d8bd
00000260: 6fde 02bd c289 8d3d 0e64 443e 7abf bf3b
00000270: 9951 4d3e 9387 383e 31d9 123e b896 cb3e
00000280: 9439 b33e 003e ab3e 63f7 943e ac72 873d
00000290: cd9d 513d f7d3 d73d 0bf7 153c d722 0a3d
000002a0: ecbf dfbd 3760 e3b9 1ead c8be 1aa8 01bf
000002b0: d119 f0be 7680 a8be a068 a1be d723 64be
000002c0: 8037 16be e619 0f3e 8e28 aa3e fe09 893e
000002d0: 304f 22be f8f0 34be 79c1 a0bd d0fd 303e
000002e0: 9e0d 9c3e dacc 2abe 179d 78be 61a3 443e
000002f0: b5c9 143e ad89 cc3e e682 f8bd 6f21 7cbe
00000300: 5b5e 853e 8af8 043e c722 e93d 835f c1bd
00000310: 66b4 1bbe 79c7 6e3e 5a24 9b3e 74a3 953e
00000320: 380d 47be a19b 35bd f419 e4bd 49c0 fa3c
00000330: 924f 1d3e 009c 80be bd14 94be 47d9 763d
00000340: d7d3 1dbd 4655 2f3e f42f 2ebe 9faf 6bbe
00000350: de5a ce3c bb85 843e 24ec 283e e36a cabd
00000360: e462 8fbe 7139 1fbe 49a0 ae3e f6d8 b33e
00000370: 1bdf 70be 651c 01be a73f 6dbd d1be c83e
00000380: 3bb2 c13e 9904 cf3d f846 4f3e d4c8 de3d
00000390: 0353 953d b44b 68bb 47f3 0abc f302 cf3e
000003a0: 932b 6c3e e8fb dbbd 5902 20be ce00 ea3e
000003b0: c1f2 f73d 05bd e9bd 1439 6dbe 82d0 77be
000003c0: 29e9 e83e 5d52 80bd a8c4 6ebe 717e 88bd
000003d0: 3bb6 3dbc 2ff2 743e ee34 0c3d 6b1c 30be
000003e0: af9e 29be ad85 26be

conv1.bias f4 [10]
0.18062888 0.14196971 0.053461723 -0.24609454 0.17850949 0.28564742 0.08852589 -0.02456235
-0.32733524 0.1706092
00000000: c7f6 383e 8260 113e aefa 5a3d 3500 7cbe
00000010: 31cb 363e 6140 923e 104d b53d fb36 c9bc
00000020: 7c98 a7be 2eb4 2e3e

conv2.weight f4 [20, 10, 5, 5]
0.040373083 0.054577745 0.0301255 -0.05057063 -0.062716015 -0.0320053 -0.016392065 -0.0015902654
-0.013432139 -0.032893524 0.051348384 -0.040450793 0.04071993 0.035792053 -0.061007533 -0.057634946
-0.026477223 0.031519186 0.0705578 -0.0009724518 -0.094687015 -0.10090134 -0.029180542 0.052262817
0.06431385 0.039030917 0.011112155 -0.00840138 -0.02957501 0.039824177 -0.054844867 0.027536059
-0.018171083 -0.06758408 0.012956194 -0.05055194 -0.019951034 -0.035019524 -0.012537363 0.07708605
0.02577035 -0.04701784 -0.059732523 -0.031820193 0.0404581 0.031618617 0.08854153 0.047198478
-0.040151935 -0.046337157 0.016141925 0.015360651 0.020842746 -0.009192838 -0.013917294 0.019895447
0.013200804 0.05739479 0.046580046 0.060096372 -0.040093973 -0.03196545 0.051398363 0.099812806
0.12434953 -0.038985696 -0.0038668036 -0.07016892 0.045666546 0.12462434 -0.015539593 -0.0998421
-0.07876642 -0.022918912 0.06493962 0.010046722 -0.033056524 -0.04644132 -0.018235013 -0.034960985
-0.050110314 -0.06314498 -0.013510806 -0.07880892 -0.051164348 -0.032569334 0.053285692 0.006860959
-0.05596631 -0.038185768 0.043935496 -0.01759954 0.012578648 0.070809476 -0.031534716 -0.074352734
-0.06658832 0.035522368 0.057763994 -0.026140463 0.025034502 -0.039035596 -0.009803771 0.029275913
-0.07629948 -0.032153912 0.0058036316 0.05222512 0.0021316095 0.0033869785 0.0242176 0.010843513
0.04840116 0.07404166 -0.013285731 0.004526299 -0.07282303 0.01637956 0.09191626 0.008193393
-0.09751253 -0.032080784 -0.015245372 0.07545116 0.13664916 -0.04296992 -0.000994964 0.046393055
-0.0029393788 0.03920891 -0.036369883 -0.0282208 0.029336436 -0.030024368 0.01776495 -0.043230038
-0.093181364 -0.04514695 -0.021986127 -0.028839769 -0.04739058 -0.08759123 -0.020682901 -0.02744176
-0.076123446 -0.061511837 -0.046468556 -0.02504437 -0.044687722 -0.029692544 -0.016093321 0.047128223
0.021236239 -0.059570547 -0.056416124 -0.027463187 -0.036120895 0.024154542 -0.01775286 -0.06327131
-0.03401983 -0.0069647147 0.013072714 -0.0634677 -0.031041145 -0.0077591925 -0.07873209 -0.017751968
-0.013807288 -0.09139493 -0.08635645 -0.010993019 -0.013780079 0.012325073 -0.03921261 -0.05395102
0.014137752 0.03471006 0.059128 -0.038412996 -0.032006297 0.045802645 -0.017375909 0.09613134
0.01752864 0.019119881 0.02501203 0.09820494 0.13238327 0.043125197 -0.052397426 -0.08731213
0.0029995544 0.014508581 0.06813586 -0.04145683 -0.026619406 -0.06317876 0.073412314 0.028695593
-0.05517292 0.0119341435 0.007961128 0.07134744 -0.05169561 -0.048510686 0.029055798 -0.016280215
0.023836168 -0.030419294 -0.028891465 -0.08194837 -0.002309013 0.11574124 0.0058657974 -0.051668644
-0.03522006 -0.035850435 0.108487375 0.027812568 -0.06860649 -0.012954122 -0.03746627 0.042063117
0.071680896 0.052067026 0.05010655 0.033023775 -0.013385556 0.01508241 -0.007327209 0.028729059
-0.044340584 -0.08506634 0.055181533 -0.011411895 -0.010949445 -0.027688587 -0.0538483 -0.04733205
0.020141708 -0.08633582 -0.032795325 -0.02960577 0.006949352 -0.009069197 -0.071201585 -0.06553314
-0.11643919 -0.01616935 0.08692006 0.1013451 0.0921857 0.06272463 0.07875149 0.10597154
00000000: 3f5e 253d ea8c 5f3d c1c9 f63c 2623 4fbd
00000010: 4171 80bd fd17 03bd a748 86bc 7470 d0ba
00000020: 7912 5cbc 5cbb 06bd af52 523d bbaf 25bd
00000030: f1c9 263d b09a 123d 09e3 79bd 9f12 6cbd
00000040: c3e6 d8bc 431a 013d 9c80 903d 23ec 7eba
00000050: 44eb c1bd 5da5 cebd 080c efbc 8911 563d
00000060: fbb6 833d e2de 1f3d c20f 363c f1a5 09bc
00000070: 4b47 f2bc ad1e 233d 03a5 60bd 4d93 e13c
00000080: 86db 94bc 8669 8abd 3746 543c 8d0f 4fbd
00000090: 5a70 a3bc a270 0fbd 8369 4dbc 4adf 9d3d
000000a0: 571c d33c c795 40bd 17aa 74bd e455 02bd
000000b0: 65b7 253d 8682 013d 4355 b53d 3153 413d
000000c0: 5b76 24bd 08cc 3dbd 123c 843c 3dab 7b3c
000000d0: 68be aa3c 8f9d 16bc 5d05 64bc c7fb a23c
000000e0: 2f48 583c cd16 6b3d b8ca 3e3d 9d27 763d
000000f0: 9439 24bd 34ee 02bd 1787 523d a86a cc3d
00000100: f7aa fe3d 77af 1fbd 336a 7dbb b9b4 8fbd
00000110: d80c 3b3d 0c3b ff3d c799 7ebc 047a ccbd
00000120: 4a50 a1bd 71c0 bbbc 10ff 843d 029b 243c
00000130: 4766 07bd 4139 3ebd 9861 95bc 4033 0fbd
00000140: 7940 4dbd 2852 81bd 6d5c 5dbc 9266 a1bd
00000150: b591 51bd 6c67 05bd 1942 5a3d e5d1 e03b
00000160: ee3c 65bd ae68 1cbd b5f5 333d e92c 90bc
00000170: ac16 4e3c 8f04 913d 8c2a 01bd 3f46 98bd
00000180: 755f 88bd e77f 113d f099 6c3d 8624 d6bc
00000190: 2815 cd3c cae3 1fbd ff9f 20bc 0ad4 ef3c
000001a0: e742 9cbd d2b3 03bd 642c be3b 02ea 553d
000001b0: 79b2 0b3b 12f8 5d3b fd63 c63c fda8 313c
000001c0: 4b40 463d 27a3 973d 65ac 59bc 5951 943b
000001d0: 3e24 95bd 6d2e 863c 983e bc3d 953d 063c
000001e0: a6b4 c7bd 2467 03bd bac7 79bc 2386 9a3d
000001f0: c2ed 0b3e 3a01 30bd 7469 82ba a506 3e3d
00000200: 98a2 40bb 8699 203d 96f8 14bd 4f2f e7bc
00000210: f752 f03c aaf5 f5bc cd87 913c fb11 31bd
00000220: dfd5 bebd 02ec 38bd 401c b4bc 6141 ecbc
00000230: a01c 42bd 0863 b3bd 306f a9bc 8bcd e0bc
00000240: 9ce6 9bbd d6f3 7bbd d055 3ebd da29 cdbc
00000250: 790a 37bd c73d f3bc 24d6 83bc 8609 413d
00000260: 9ff7 ad3c 3f00 74bd 9814 67bd 7afa e0bc
00000270: 81f3 13bd bfdf c53c 726e 91bc 6394 81bd
00000280: 6158 0bbd 4338 e4bb f02e 563c 5afb 81bd
00000290: 004a febc d340 febb 4a3e a1bd 936c 91bc
000002a0: f737 62bc 442d bbbd a7db b0bd 101c 34bc
000002b0: d7c5 61bc 1aef 493c 679d 20bd bffb 5cbd
000002c0: 08a2 673c 232c 0e3d 3430 723d f256 1dbd
000002d0: 0919 03bd 8e9b 3b3d ec57 8ebc 82e0 c43d
000002e0: 3998 8f3c 4ca1 9c3c 07e6 cc3c ac1f c93d
000002f0: 7b8f 073e 0ca4 303d af9e 56bd b4d0 b2bd
00000300: 2c94 443b 66b5 6d3c d08a 8b3d a3ce 29bd
00000310: f110 dabc de63 81bd 3259 963d 0513 eb3c
00000320: 00fd 61bd 6d87 433c 646f 023c 9b1e 923d
00000330: c7be 53bd 24b3 46bd 6d06 ee3c 165e 85bc
00000340: 1144 c33c e231 f9bc cbad ecbc 8cd4 a7bd
00000350: cf52 17bb be09 ed3d e035 c03b 80a2 53bd
00000360: e942 10bd e8d7 12bd a12e de3d 2fd7 e33c
00000370: 8f81 8cbd 873d 54bc 3b76 19bd 604a 2c3d
00000380: 6fcd 923d 3c44 553d 873c 4d3d f043 073d
00000390: 174f 5bbc 361c 773c 1619 f0bb 3459 eb3c
000003a0: 799e 35bd 4337 aebd 0806 623d f5f8 3abc
000003b0: 4d65 33bc 2dd3 e2bc 0990 5cbd 40df 41bd
000003c0: 3900 a53c d6d0 b0bd 6454 06bd cd87 f2bc
000003d0: 64b7 e33b f896 14bc 23d2 91bd 3d36 86bd
000003e0: ac77 eebd 9675 84bc 2503 b23d 058e cf3d
000003f0: dbcb bc3d c575 803d 7648 a13d 9b07 d93d

conv2.bias f4 [20]
-0.04636996 0.01045837 -0.008219241 0.043466926 0.009737507 -0.055307493 0.004579651 0.058447167
-0.045866735 0.022087641 0.042743254 -0.07329226 0.09656586 0.029261287 -0.040901672 -0.012860542
-0.01701736 -0.0059541995 0.04258045 -0.053177323
00000000: 6dee 3dbd 9559 2b3c ffa9 06bc 600a 323d
00000010: 118a 1f3c 1c8a 62bd e610 963b 4c66 6f3d
00000020: c2de 3bbd 24f1 b43c 8d13 2f3d 411a 96bd
00000030: 52c4 c53d 5eb5 ef3c 8388 27bd 06b5 52bc
00000040: fe67 8bbc 721b c3bb d768 2e3d 77d0 59bd

linear1.weight f4 [256, 500]
-0.007086286 0.0021072868 0.013921742 -0.0016671763 -0.03210296 -0.02415316 0.009235008 -0.042292826
0.033781268 0.028879112 -0.03183465 0.02689447 0.026894785 0.019252466 0.00972223 -0.002349003
-0.0013969706 -0.042049862 0.026961077 -0.00021561557 -0.041996334 0.023115493 0.013334639 0.032756187
-0.002650045 0.04229905 0.034798477 0.01931871 0.003033726 0.01095176 0.03394435 -0.0058493833
0.025787506 0.027510514 -0.012651367 0.039139755 -0.011840786 -0.04028318 0.020022396 -0.031266246
0.027933916 -0.04375246 -0.0052783797 -0.017941317 -0.030559879 0.019749168 -0.0020472978 0.031100102
-0.0036150308 -0.034681633 0.02219321 -0.03584177 0.040138457 -0.038113233 -0.0455714 -0.0021724764
-0.02031744 -0.024497734 -0.024295593 0.021183595 -0.011412805 -0.016497964 -0.032244466 0.0041631814
-0.0026970191 -0.007037427 0.025812725 0.041031722 -0.0029589015 -0.024488503 -0.030768633 0.01451395
0.0017700663 0.019933097 0.007360681 0.022531627 0.020235015 -0.028840097 -0.03238355 0.022402065
0.0262132 0.029393854 -0.0309543 -0.021081932 0.03981464 -0.022886764 -0.020150334 -0.04300303
0.013406501 0.025190683 -0.034454044 0.00413732 0.015883122 -0.014207561 -0.0035800645 0.02237965
0.011596754 0.02029622 -0.032897376 0.010645958 0.0016923413 0.022563899 -0.035072505 0.00045439013
0.004894879 0.031491872 -0.037188806 -0.031336375 -0.04488955 -0.0050790943 0.020786492 0.040610127
0.039304968 0.0209891 -0.004129656 -0.0050126226 0.014784522 -0.031766124 0.005147014 0.010020864
-4.2501006e-06 0.035755403 -0.0068753483 -0.0075661065 0.013074146 -0.03665529 0.040886782 -0.0064621186
-0.046484586 -0.043580122 -0.004159204 -0.02469695 -0.010209951 -0.04486988 -0.038794994 -0.01731448
-0.029953578 -0.011753158 0.03678052 0.0011321094 -0.010798435 -0.020375732 0.018149287 -0.04164005
0.027584868 0.0058619827 -0.03228752 0.0056817955 -0.028490447 -0.013081511 0.02273052 0.04321195
0.022082185 -0.021112766 0.029540408 -0.0011057559 -0.018008422 -0.037002016 -0.029495109 -0.0068198005
0.04236276 -0.02017418 -0.039278373 0.021673685 -0.036246233 0.027224569 0.01651837 -0.012371572
-0.0064476263 0.0245991 0.040988404 -0.022136675 0.03979375 -0.012135358 -0.015462947 0.028695317
-0.0121906875 0.024921091 0.033998724 0.004749205 -0.028810643 0.03633726 0.016661435 0.019471502
-0.02425828 0.0332495 -0.04565083 0.0069919857 -0.042192977 0.037396513 -0.023784705 -0.030644676
-0.018495787 0.00090492674 -0.01821078 -0.035314158 0.004298714 -0.014005634 -0.001400399 -0.017513338
-0.011979985 -0.031420827 0.023766557 -0.037096612 -0.033334702 -0.041993406 -0.011807039 0.015312621
-0.004210584 0.038083896 -0.041145153 -0.0035948353 0.024425818 -0.005238929 -0.016898356 0.0029886165
-0.00086946413 0.0026286722 -0.038589936 0.0013086306 -0.030682849 -0.03012483 -0.013868079 -0.0104582645
-0.043995067 -0.01650166 -0.037238237 0.027402917 0.010807199 0.009483614 -0.012466053 -0.043357547
0.018887352 0.037619278 0.04061434 0.01556306 -0.018585112 0.033475958 -0.03688289 -0.043404892
0.015215973 0.018610202 -0.027136322 0.030102445 -0.022621265 0.042779166 -0.012618687 0.017071242
-0.030838577 0.003654249 0.032143332 -0.0065035503 -0.019131195 0.0018484495 -0.010830247 -0.02509933
00000000: 1334 e8bb 681a 0a3b 0518 643c 2785 daba
00000010: 657e 03bd d9dc c5bc 6e4e 173c 3e3b 2dbd
00000020: 3a5e 0a3d e393 ec3c 0d65 02bd cb51 dc3c
00000030: 7452 dc3c 59b7 9d3c fd49 1f3c bbf1 19bb
00000040: 8e1a b7ba 7a3c 2cbd 7add dc3c dd16 62b9
00000050: 5904 2cbd b45c bd3c 8879 5a3c 5a2b 063d
00000060: 61ac 2dbb c541 2d3d d988 0e3d 4542 9e3c
00000070: 7ad1 463b 036f 333c 3b09 0b3d 2fac bfbb
00000080: 5240 d33c bb5d e13c ae47 4fbc 0251 203d
00000090: dbff 41bc faff 24bd 0206 a43c 0911 00bd
000000a0: abd5 e43c c835 33bd 42f6 acbb abf9 92bc
000000b0: b658 fabc 02c9 a13c f52b 06bb a4c5 fe3c
000000c0: 27ea 6cbb 540e 0ebd 89ce b53c d2ce 12bd
000000d0: 3968 243d 9f1c 1cbd 14a9 3abd 1b60 0ebb
000000e0: c370 a6bc 79af c8bc 8d07 c7bc 3889 ad3c
000000f0: c6fc 3abc bd26 87bc c612 04bd 4c6b 883b
00000100: 79c0 30bb 379a e6bb 3575 d33c e110 283d
00000110: 21ea 41bb 1d9c c8bc 800e fcbc ebcb 6d3c
00000120: 9201 e83a bc4a a33c de31 f13b 3f94 b83c
00000130: e7c3 a53c 1142 ecbc 9da4 04bd 8984 b73c
00000140: 11bd d63c 61cb f03c df93 fdbc 04b4 acbc
00000150: ad14 233d 067d bbbc 5012 a5bc f223 30bd
00000160: f1a6 5b3c b15c ce3c af1f 0dbd 5b92 873b
00000170: 521d 823c d4c6 68bc 849f 6abb 8755 b73c
00000180: 5000 3e3c 4244 a63c 66bf 06bd 626c 2e3c
00000190: 8dd1 dd3a edd7 b83c 30a8 0fbd 363b ee39
000001a0: 3965 a03b 9ffd 003d 4a53 18bd 925a 00bd
000001b0: 1bde 37bd 886e a6bb 6f48 aa3c ce56 263d
000001c0: 3ffe 203d 55f1 ab3c 1152 87bb ed40 a4bb
000001d0: c83a 723c 321d 02bd 48a8 a83b 8d2e 243c
000001e0: 169c 8eb6 4274 123d 9a4a e1bb 1aed f7bb
000001f0: f134 563c db23 16bd e678 273d 2ec0 d3bb
00000200: 9f66 3ebd 1281 32bd ef49 88bb 4251 cabc
00000210: a347 27bc 7bc9 37bd 80e7 1ebd 19d7 8dbc
00000220: 3561 f5bc 5190 40bc 2ca7 163d 4a63 943a
00000230: ebeb 30bc 02eb a6bc d0ad 943c c28e 2abd
00000240: a9f9 e13c e015 c03b eb3f 04bd 5b2e ba3b
00000250: cc64 e9bc d553 56bc 5b35 ba3c 04ff 303d
00000260: b3e5 b43c aef4 acbc bafe f13c 03ef 90ba
00000270: 6686 93bc 6d8f 17bd ba9f f1bc a278 dfbb
00000280: 9384 2d3d 5244 a5bc 5ce2 20bd 038d b13c
00000290: ee76 14bd 0f06 df3c 8851 873c 22b2 4abc
000002a0: 9c46 d3bb 0d84 c93c 75e3 273d f957 b5bc
000002b0: c5fe 223d 61d3 46bc 4d58 7dbc 7112 eb3c
000002c0: 73bb 47bc 5127 cc3c 3f42 0b3d 389f 9b3b
000002d0: 4c04 ecbc 61d6 143d 907d 883c b382 9f3c
000002e0: 4db9 c6bc a130 083d 5dfc 3abd 071d e53b
000002f0: 8bd2 2cbd 162d 193d 24d8 c2bc 8b0a fbbc
00000300: 7a84 97bc 9b38 6d3a c62e 95bc 94a5 10bd
00000310: 3adc 8c3b e377 65bc 988d b7ba 2278 8fbc
00000320: b347 44bc 20b3 00bd 15b2 c23c 9ef2 17bd
00000330: f889 08bd 4701 2cbd 5072 41bc cae1 7a3c
00000340: f0f8 89bb dcfd 1b3d d287 28bd 5497 6bbb
00000350: a718 c83c 52ab abbb 6c6e 8abc aadc 433b
00000360: c0ec 63ba cd45 2c3b 7b10 1ebd 5b86 ab3a
00000370: 995a fbbc 59c8 f6bc f036 63bc 2459 2bbc
00000380: 2c34 34bd 7d2e 87bc 1f87 18bd 157c e03c
00000390: ae10 313c 2961 1b3c 6a3e 4cbc af97 31bd
000003a0: a6b9 9a3c ac16 1a3d 395b 263d 34fc 7e3c
000003b0: ce3f 98bc 161e 093d 8312 17bd 54c9 31bd
000003c0: 6b4c 793c 6c74 983c fe4c debc 6799 f63c
000003d0: 3b50 b9bc 3539 2f3d 9cbe 4ebc fdd8 8b3c
000003e0: 2fa1 fcbc 207c 6f3b baa8 033d bc1b d5bb
000003f0: 06b9 9cbc ac47 f23a 5971 31bc 1c9d cdbc

linear1.bias f4 [256]
0.013250191 -0.016907865 0.011873543 -0.016332991 0.026396386 0.00014112586 -0.0062594847 -0.007457428
-0.024347017 0.019211745 -0.015726993 0.02361704 0.034919746 -0.027456712 0.036834367 0.024600057
0.017005391 -0.016922826 0.024842434 0.0065206317 0.012217451 0.015324697 0.0038495576 -0.0300979
-0.025285348 0.0029577387 0.027001552 0.03300675 0.018195927 -0.00063141517 0.037504032 -0.021875469
0.024468705 -0.0339452 -0.025666963 0.0064326213 0.029955352 -9.411347e-06 0.026621198 0.024150994
0.026584722 0.008383286 -0.0033498455 0.030995218 -0.041449036 -0.0076082624 0.0035637275 0.046356283
0.0024717136 0.009679094 -0.009735616 -0.010529503 0.03738194 -0.007647214 -0.00042138703 0.019010749
-0.033173498 0.017499201 0.011775065 0.039863814 -0.0023232494 -0.024918145 -0.043293912 0.03678822
0.020525975 0.042217944 -0.016096685 -0.0079190545 0.03867144 0.011009144 -0.029359598 -0.009746558
-0.012099828 0.0060834195 -0.028266324 -0.024423357 0.031801008 -0.0042861653 0.023902385 -0.046299882
-0.014267509 0.032035295 0.039584428 -0.039558355 -0.0053178193 0.015756318 0.029395048 -0.016887609
0.043949608 0.024339274 0.038134214 -0.011241987 -0.027204141 -0.012950865 0.022749124 0.01030041
0.03934932 0.019957788 -0.03151078 0.047930546 0.043665983 -0.022446778 0.021371515 0.01117646
0.03923411 0.02741466 -0.0028011124 0.042979386 0.033284433 -0.0009291546 0.0357823 0.008547449
0.02784601 -0.011108722 -0.024669264 0.034304462 -0.022549946 -0.031945746 -0.03264825 -0.03582684
0.02862031 -0.004809219 -0.031036787 0.027722577 0.040773757 0.03525691 0.029108822 0.011063997
-0.01536363 -0.022270594 -0.032507773 0.041207258 -0.007116471 -0.026739828 0.013856076 -0.02985572
0.019138733 0.044244327 0.03146869 -0.030216582 -0.037396323 -0.041946445 0.043479923 -0.042696662
0.013864931 0.006355259 -0.0077976403 -0.030246738 -0.020919124 0.023233915 0.03432708 0.0013076882
0.008778672 -0.012986907 0.037467074 0.027133811 -0.02909177 0.033764843 0.014693388 -0.021548457
-0.00223122 -0.039379682 -0.015326585 -0.010208549 -0.021551767 -0.0017029453 0.031723175 0.028316556
0.03526455 0.03339233 -0.034908764 0.047335558 0.018875573 0.03115417 0.012466066 0.016072849
-0.044160105 -0.032587342 -0.022367729 -0.011215053 -0.015215883 0.02393226 0.002643654 0.015517068
-0.030266829 0.023157269 -0.027831888 0.012499517 -0.04555558 -0.00085233187 0.03812018 0.024637194
-0.012953847 0.0030367495 0.035033837 0.0030144074 -0.0040829964 -0.025398463 -0.0031672225 0.038356245
0.019386005 -0.031159101 -0.029952776 0.019524924 -0.030508146 -0.021558411 -0.025071835 -0.021383101
-0.014744153 -0.013873436 0.006257077 -0.020474756 -0.029190825 -0.009482916 -0.039976243 0.032530088
-0.040461853 -0.023674237 0.016829848 -0.01818333 0.00819551 0.033184987 -0.035731 0.016193198
0.04175517 0.024306567 0.018129408 -0.005888231 0.003931013 -0.04446675 -0.040277988 0.010122559
0.013101215 0.033912193 0.047843914 0.008552523 0.030500554 0.038997166 0.0012365365 0.016590841
0.016398974 -0.0026567914 0.043306164 0.04930074 -0.024105236 0.01274781 -0.0070065465 -0.03946004
0.01274392 0.03068802 -0.029299716 0.0046181986 -0.013316237 -0.010680248 0.02147431 0.010613934
00000000: 5417 593c 5d82 8abc 4089 423c c4cc 85bc
00000010: 3c3d d83c 2ffb 1339 5d1c cdbb 715d f4bb
00000020: 6573 c7bc f361 9d3c e5d5 80bc 8678 c13c
00000030: 0208 0f3d e6ec e0bc a2df 163d 0f86 c93c
00000040: e44e 8b3c bda1 8abc 5c82 cb3c 06ab d53b
00000050: b42b 483c 7014 7b3c dc48 7c3b df8f f6bc
00000060: 3823 cfbc 9fd6 413b 5c32 dd3c 1632 073d
00000070: a00f 953c 8e85 25ba d49d 193d 2f34 b3bc
00000080: 9872 c83c 1f0a 0bbd 8643 d2bc bdc8 d23b
00000090: ed64 f53c 6de5 1db7 b314 da3c 4ed8 c53c
000000a0: 34c8 d93c 0d5a 093c 1589 5bbb afe9 fd3c
000000b0: 77c6 29bd bb4e f9bb 6d8d 693b 16e0 3d3d
000000c0: 79fc 213b 1095 1e3c 2282 1fbc f083 2cbc
000000d0: ce1d 193d 7b95 fabb 9ced dcb9 6ebc 9b3c
000000e0: efe0 07bd 7c5a 8f3c 34ec 403c 3d48 233d
000000f0: a841 18bb 2321 ccbc f554 31bd 3faf 163d
00000100: 1726 a83c b9ec 2c3d 32dd 83bc ecbe 01bc
00000110: f265 1e3d b25f 343c 8a83 f0bc 07b0 1fbc
00000120: 5b3e 46bc 6c57 c73b c78e e7bc 7e13 c8bc
00000130: c641 023d f672 8cbb efce c33c f2a4 3dbd
00000140: 45c2 69bc 7137 033d 4823 223d f107 22bd
00000150: 1a41 aebb 6513 813c e2cd f03c e257 8abc
00000160: 8104 343d 2863 c73c 9f32 1c3d 5030 38bc
00000170: 38db debc dd2f 54bc 5f5c ba3c 0dc3 283c
00000180: c12c 213d 847e a33c 7311 01bd d252 443d
00000190: 1adb 323d 4ee2 b7bc 5113 af3c 791d 373c
000001a0: f2b3 203d b694 e03c de92 37bb 270b 303d
000001b0: 4255 083d 8292 73ba 7690 123d 990a 0c3c
000001c0: 511d e43c 5b01 36bc 3217 cabc d682 0c3d
000001d0: aaba b8bc 8bd9 02bd 2cba 05bd 2abf 12bd
000001e0: 2475 ea3c a796 9dbb dc40 febc 751a e33c
000001f0: 6202 273d 8d69 103d a075 ee3c c445 353c
00000200: bcb7 7bbc d270 b6bc df26 05bd f1c8 283d
00000210: 4931 e9bb 7c0d dbbc 9804 633c fc93 f4bc
00000220: d5c8 9c3c 8a39 353d 50e5 003d c488 f7bc
00000230: e32c 19bd 09d0 2bbd 0118 323d b2e2 2ebd
00000240: bc29 633c c73f d03b 5983 ffbb 02c8 f7bc
00000250: 955e abbc 0d55 be3c 8d9a 0c3d bc66 ab3a
00000260: 6bd4 0f3c 09c7 54bc 1377 193d ba47 de3c
00000270: dd51 eebc 014d 0a3d 89bc 703c 6486 b0bc
00000280: a939 12bb 974c 21bd 5b1c 7bbc c241 27bc
00000290: 558d b0bc 5d35 dfba 29f0 013d 1ff8 e73c
000002a0: 9071 103d 65c6 083d 7efc 0ebd eee2 413d
000002b0: f2a0 9a3c 0837 ff3c 783e 4c3c 35ab 833c
000002c0: 3ae1 34bd 4e7a 05bd 873c b7bc 57bf 37bc
000002d0: 0a4c 79bc 960d c43c 2741 2d3b 4d3b 7e3c
000002e0: 24f2 f7bc 50b4 bd3c b3ff e3bc c6ca 4c3c
000002f0: 7d98 3abd 066f 5fba e823 1c3d f1d3 c93c
00000300: 5f3c 54bc 3404 473b a47f 0f3d 5d8d 453b
00000310: a8ca 85bb 7010 d0bc 2d91 4fbb 701b 1d3d
00000320: 66cf 9e3c 5f41 ffbc 865f f5bc bcf2 9f3c
00000330: 38ec f9bc 449b b0bc 7363 cdbc 9d2b afbc
00000340: 7691 71bc 684d 63bc 2b08 cd3b adba a7bc
00000350: 9921 efbc 3c5e 1bbc 21be 23bd 453e 053d
00000360: 54bb 25bd 79f0 c1bc c0de 893c 35f5 94bc
00000370: 7646 063c fbec 073d ab5a 12bd 99a7 843c
00000380: 7807 2b3d 911e c73c 2084 943c 10f2 c0bb
00000390: bacf 803b c422 36bd 88fa 24bd 17d9 253c
000003a0: 7aa6 563c 83e7 0a3d fbf7 433d e21f 0c3c
000003b0: 4cdc f93c 7ebb 1f3d 4813 a23a 84e9 873c
000003c0: 2457 863c 901d 2ebb ce61 313d 93ef 493d
000003d0: 5878 c5bc 31dc 503c 2c97 e5bb daa0 21bd
000003e0: e0cb 503c 7165 fb3c f505 f0bc 4254 973b
000003f0: 592c 5abc 35fc 2ebc e4ea af3c 11e6 2d3c

linear2.weight f4 [10, 256]
0.002803123 0.036183015 0.034044027 -0.034665503 -0.005825794 0.12121315 0.07609122 0.10027443
-0.08110957 0.018937385 -0.108262874 0.016868863 -0.09002413 0.0057427096 -0.12336414 -0.096593864
-0.019164875 0.060932998 -0.100237705 0.06644279 0.032733236 0.048488338 -0.03223815 -0.06353206
-0.18014309 -0.0586397 -0.004912369 0.02890352 -0.0647014 0.07651271 0.1698651 0.017079936
0.089269094 0.04046373 -0.10592826 -0.0020993643 0.04535375 0.054459997 0.07251914 0.0108778635
-0.0798087 -0.040020883 0.1335861 0.009176325 -0.041099276 -0.092513084 0.052766986 -0.009186769
0.028866755 0.060657356 -0.1295973 0.018871889 0.06704217 -0.09244403 -0.0985687 0.07876695
-0.05698128 -0.0069439355 0.029690681 -0.0045964923 0.03274159 0.05628232 -0.007944729 0.08223725
0.13332006 -0.06556292 -0.07581993 0.013802119 -0.037001215 -0.028817546 -0.12276897 0.11349113
0.035783134 0.017700592 0.03399525 -0.09041208 -0.034528684 0.0012249739 -0.013908478 0.014195995
0.0726393 -0.0645682 -0.04711837 -0.14620082 -0.078026146 0.05311095 -0.099265926 0.11559599
0.0020434924 0.040406648 0.005308989 0.055182282 0.07890747 -0.11353625 -0.011549605 0.040000834
-0.12711737 0.048159227 0.14482899 0.106609106 -0.026877197 -0.012862331 -0.005062843 0.034801807
-0.02741194 -0.062281303 0.015275588 -0.07967992 -0.027889326 0.028915504 -0.04903929 -0.012190685
-0.08838403 -0.0044531617 -0.039363276 -0.018680317 0.018665724 0.021142863 -0.029031426 0.019412268
-0.061823756 -0.07753413 -0.07527658 -0.09692272 -0.06679052 0.05109205 -0.03590097 -0.05867799
-0.08188126 -0.033476207 0.01584732 -0.10836956 -0.063221835 -0.034673523 0.110738665 0.007076631
0.0584798 -0.049723603 -0.10519702 -0.049905013 0.0013358074 -0.044698693 -0.08435201 -0.008602588
0.0588033 0.1263172 0.045965236 -0.033957098 -0.17846473 0.0063655972 -0.09388093 0.059085596
0.02883616 -0.07732842 0.093868524 -0.0076470305 0.023038069 -0.04690592 0.10567604 -0.04576684
-0.11304964 -0.108043745 -0.014936265 -0.19601627 0.02350817 0.04781 -0.024341842 0.106368706
-0.051917914 -0.037394773 0.052802928 -0.06915653 -0.06822804 0.044022474 -0.04103721 -0.064154014
-0.029419325 0.056438982 -0.09373022 -0.06504226 -0.10233318 0.03735399 0.03497417 0.08724942
-0.026374819 0.18347424 0.062055573 0.078721926 -0.057273407 0.081339024 -0.0976681 -0.0074960007
-0.13123445 0.096457735 0.0033566775 0.0696575 0.09828055 -0.011177998 0.0015582801 0.12560073
-0.057224836 0.0032451833 0.097469546 0.0051657087 -0.03203434 0.10206526 -0.0032515503 0.05206308
-0.012877341 -0.076152235 0.06558849 0.10248996 0.0027565148 0.03161282 -0.023962475 -0.032420184
0.13534881 -0.13324122 -0.012632847 -0.08239107 0.01389909 -0.13741685 -0.056116883 0.10208851
-0.019572414 -0.013820656 0.026521994 0.047127627 -0.0004387558 -0.010083907 0.06608332 -0.04897244
-0.057211548 -0.07118167 0.046211343 0.11378722 -0.030610494 -0.024935912 0.060729876 0.09601047
0.06287371 0.03104363 0.04821619 0.082940385 -0.08511093 0.041042235 -0.02170739 -0.007066997
-0.13240445 0.060554054 -0.07037513 0.0483655 0.04043238 0.09965305 0.03262429 0.088781066
00000000: 9ab4 373b a434 143d c071 0b3d 6afd 0dbd
00000010: 4de6 bebb 9a3e f83d b7d5 9b3d ae5c cd3d
00000020: c61c a6bd 9322 9b3c edb8 ddbd 9230 8a3c
00000030: 925e b8bd 572d bc3b 57a6 fcbd 01d3 c5bd
00000040: a8ff 9cbc e194 793d 6d49 cdbd 2813 883d
00000050: 4913 063d b59b 463d 260c 04bd 191d 82bd
00000060: 6e77 38be 2f30 70bd f0f7 a0bb 13c7 ec3c
00000070: 2b82 84bd b2b2 9c3d 1ef1 2d3e 39eb 8b3c
00000080: b7d2 b63d 4cbd 253d eaf0 d8bd 7d95 09bb
00000090: dbc4 393d 7211 5f3d ea84 943d 1139 323c
000000a0: be72 a3bd f0ec 23bd cbca 083e 4c58 163c
000000b0: b757 28bd 8077 bdbd 3222 583d 1a84 16bc
000000c0: f979 ec3c d973 783d 28b5 04be 3899 9a3c
000000d0: 684d 893d 4c53 bdbd 63de c9bd 9150 a13d
000000e0: 3465 69bd f489 e3bb df39 f33c 2c9e 96bb
000000f0: 0c1c 063d 4a88 663d 9c2a 02bc 016c a83d
00000100: 0e85 083e da45 86bd 7b47 9bbd 4822 623c
00000110: 968e 17bd c612 ecbc 4c6e fbbd 0a6e e83d
00000120: 5691 123d d500 913c 9a3e 0b3d f829 b9bd
00000130: f36d 0dbd 4e8f a03a 63e0 63bc 5296 683c
00000140: eac3 943d 553c 84bd 31ff 40bd abb5 15be
00000150: 2ccc 9fbd de8a 593d ef4b cbbd 97bd ec3d
00000160: 1dec 053b 7181 253d 07f7 ad3b d106 623d
00000170: 3d9a a13d b285 e8bd 8e3a 3dbc ead7 233d
00000180: 0e2b 02be 9c42 453d 0d4e 143e e055 da3d
00000190: 912d dcbc 87bc 52bc 35e6 a5bb 578c 0e3d
000001a0: 018f e0bc ae1a 7fbd 7646 7a3c 3a2f a3bd
000001b0: 2878 e4bc 35e0 ec3c 6cdd 48bd 70bb 47bc
000001c0: b002 b5bd d4eb 91bb 633b 21bd 7707 99bc
000001d0: dce8 983c cc33 ad3c 50d3 edbc 7a06 9f3c
000001e0: e83a 7dbd 37ca 9ebd 9c2a 9abd 6b7f c6bd
000001f0: 78c9 88bd e645 513d e50c 13bd 5558 70bd
00000200: 5db1 a7bd 591e 09bd 3dd2 813c dcf0 ddbd
00000210: 737a 81bd d305 0ebd f4ca e23d 15e3 e73b
00000220: 8488 6f3d faaa 4bbd 8971 d7bd 3369 4cbd
00000230: 4216 af3a fa15 37bd bfc0 acbd dff1 0cbc
00000240: bbdb 703d 4c59 013e 0b46 3c3d 9916 0bbd
00000250: 75bf 36be 8096 d03b a544 c0bd bd03 723d
00000260: d039 ec3c 5d5e 9ebd 243e c03d f193 fabb
00000270: 55ba bc3c 6c20 40bd ae6c d83d 0376 3bbd
00000280: 9286 e7bd 0a46 ddbd 3cb7 74bc 7db8 48be
00000290: 3594 c03c 6bd4 433d 8b68 c7bc d6d7 d93d
000002a0: e1a7 54bd 432b 19bd e247 583d f0a1 8dbd
000002b0: 25bb 8bbd e950 343d a216 28bd 2e63 83bd
000002c0: cc00 f1bc 902c 673d a1f5 bfbd e034 85bd
000002d0: 0f94 d1bd 7f00 193d 1341 0f3d d3af b23d
000002e0: 0110 d8bc ace0 3b3e fc2d 7e3d f638 a13d
000002f0: 8597 6abd 1395 a63d 3606 c8bd 03a1 f5bb
00000300: 5362 06be a28b c53d b4fb 5b3b 97a8 8e3d
00000310: 5047 c93d ec23 37bc 343f cc3a 7a9d 003e
00000320: 9764 6abd 24ad 543b 1d9e c73d 1b45 a93b
00000330: 7136 03bd 9707 d13d f617 55bb 1940 553d
00000340: 7cfb 52bc b4f5 9bbd 4253 863d 42e6 d13d
00000350: a5a6 343b 727c 013d f44c c4bc 07cb 04bd
00000360: e198 0a3e 6370 08be 00fa 4ebc a6bc a8bd
00000370: 02b9 633c 01b7 0cbe d1da 65bd c813 d13d
00000380: 5456 a0bc 0870 62bc a744 d93c e608 413d
00000390: ce08 e6b9 f936 25bc b156 873d 5397 48bd
000003a0: a856 6abd b2c7 91bd 1b48 3d3d 4609 e93d
000003b0: dcc2 fabc 6646 ccbc e4bf 783d 23a1 c43d
000003c0: efc3 803d 364f fe3c 577e 453d a6dc a93d
000003d0: a44e aebd e71b 283d b2d3 b1bc 4492 e7bb
000003e0: 0895 07be 8707 783d d620 90bd e71a 463d
000003f0: 6c9c 253d e616 cc3d 0ca1 053d d9d2 b53d

linear2.bias f4 [10]
-0.047845032 0.041574582 -0.039894067 0.054123558 -0.03948032 0.0032570378 0.0062477305 0.029384999
0.055419352 0.021307172
00000000: 27f9 43bd 1c4a 2a3d f667 23bd aab0 5d3d
00000010: 1eb6 21bd 0774 553b c3b9 cc3b cfb8 f03c
00000020: 67ff 623d 618c ae3c
